ml/KWS_model.tflite (tflite, 22712 bytes, 2 tensors)

final_fc_weights/read/transpose i1 [5, 4000] scale=0.00047220077 zero_point=0
-0.014166024 0.009444015 -0.016999228 -0.010860618 0.0047220076 0.004249807 0.008027413 0.0033054054
0.0 0.008971815 0.0033054054 -0.014166024 -0.0066108108 0.00094440154 0.010388417 0.005666409
0.0033054054 -0.010388417 0.01888803 -0.0014166023 -0.00094440154 0.008027413 0.015582626 0.017471429
0.0037776062 -0.014638224 -0.014166024 -0.0033054054 0.005666409 0.038248263 -0.0051942086 0.0066108108
0.0018888031 0.011805019 0.0023610038 -0.0066108108 -0.009444015 0.04155367 -0.010388417 0.0
-0.016999228 0.008499614 -0.0037776062 0.009444015 -0.016054826 0.04674788 0.0132216215 0.008971815
-0.0028332046 0.007083012 0.007083012 -0.011332818 -0.010860618 0.03588726 0.00613861 0.0033054054
0.0033054054 -0.01888803 -0.0037776062 -0.0075552124 0.014166024 0.022665637 0.016054826 -0.010388417
0.005666409 -0.0066108108 -0.008027413 0.00613861 0.0037776062 0.01227722 -0.0037776062 -0.0028332046
-0.0018888031 -0.008971815 0.0075552124 -0.016999228 -0.0051942086 0.014166024 -0.008027413 0.0014166023
-0.011332818 0.0037776062 -0.007083012 -0.0018888031 -0.005666409 0.021721236 0.0023610038 -0.008971815
-0.00047220077 0.010860618 0.010388417 0.015110425 0.010388417 0.034942858 0.00613861 0.0028332046
0.009916216 0.0 0.015110425 -0.0033054054 -0.0023610038 0.022193436 -0.0014166023 0.004249807
0.007083012 -0.016999228 -0.0033054054 -0.007083012 -0.010388417 0.039664865 -0.013693823 0.0018888031
-0.0014166023 -0.01888803 -0.010388417 -0.0127494205 -0.019360231 0.059025098 -0.008499614 0.0
0.0047220076 0.0018888031 -0.0033054054 -0.0066108108 0.0047220076 0.039664865 -0.00094440154 -0.005666409
0.00613861 0.009916216 0.01227722 0.0037776062 -0.0037776062 0.023137838 0.009444015 0.00047220077
-0.0014166023 0.009916216 0.004249807 -0.014638224 0.011332818 0.014638224 -0.009444015 0.0037776062
-0.0018888031 0.01227722 -0.0014166023 0.008971815 -0.00047220077 -0.0023610038 -0.008027413 -0.008499614
-0.0018888031 0.00613861 0.02455444 0.0066108108 0.00047220077 0.0033054054 0.009916216 0.004249807
0.011805019 0.014166024 0.0051942086 0.016527027 -0.0127494205 -0.0018888031 -0.0047220076 0.0028332046
0.0037776062 -0.010388417 0.004249807 -0.00094440154 0.019832432 -0.0075552124 0.011332818 -0.018415831
0.0051942086 -0.0066108108 0.004249807 -0.0066108108 -0.0047220076 -0.0023610038 0.009916216 -0.00047220077
0.007083012 -0.008027413 -0.0075552124 0.0047220076 -0.004249807 0.008499614 0.0066108108 0.00047220077
0.0028332046 0.0023610038 -0.010388417 0.0051942086 -0.00094440154 0.0051942086 0.009444015 -0.010388417
0.007083012 -0.008499614 -0.005666409 0.010388417 0.0132216215 0.0033054054 0.011805019 -0.0127494205
0.016527027 -0.007083012 -0.005666409 -0.011332818 -0.01227722 0.008027413 0.0 0.0
-0.013693823 -0.009444015 0.008971815 -0.0014166023 -0.0051942086 0.010860618 0.0 -0.007083012
-0.008027413 0.0037776062 0.0075552124 0.0014166023 0.005666409 0.007083012 -0.0132216215 0.008499614
0.00047220077 0.005666409 -0.008971815 0.008499614 -0.0018888031 -0.0028332046 -0.010388417 -0.007083012
0.0014166023 -0.0075552124 0.0127494205 -0.011805019 -0.013693823 0.0051942086 -0.011332818 0.015582626
-0.014638224 -0.008027413 -0.008971815 0.009916216 -0.0066108108 0.00613861 0.00047220077 0.016527027
00000000: e214 dce9 0a09 1107 0013 07e2 f202 160c
00000010: 07ea 28fd fe11 2125 08e1 e2f9 0c51 f50e
00000020: 0419 05f2 ec58 ea00 dc12 f814 de63 1c13
00000030: fa0f 0fe8 e94c 0d07 07d8 f8f0 1e30 22ea
00000040: 0cf2 ef0d 081a f8fa fced 10dc f51e ef03
00000050: e808 f1fc f42e 05ed ff17 1620 164a 0d06
00000060: 1500 20f9 fb2f fd09 0fdc f9f1 ea54 e304
00000070: fdd8 eae5 d77d ee00 0a04 f9f2 0a54 fef4
00000080: 0d15 1a08 f831 1401 fd15 09e1 181f ec08
00000090: fc1a fd13 fffb efee fc0d 340e 0107 1509
000000a0: 191e 0b23 e5fc f606 08ea 09fe 2af0 18d9
000000b0: 0bf2 09f2 f6fb 15ff 0fef f00a f712 0e01
000000c0: 0605 ea0b fe0b 14ea 0fee f416 1c07 19e5
000000d0: 23f1 f4e8 e611 0000 e3ec 13fd f517 00f1
000000e0: ef08 1003 0c0f e412 010c ed12 fcfa eaf1
000000f0: 03f0 1be7 e30b e821 e1ef ed15 f20d 0123

first_weights/read i1 [1, 10, 8, 8]
42 -55 44 47 -47 74 -7 -25
66 4 26 29 50 12 2 -4
-14 -17 119 52 70 26 127 67
-43 71 -14 12 26 -30 42 24
6 41 19 9 17 -39 71 9
10 30 -10 -12 67 -22 41 41
0 -59 -52 -23 93 -47 10 -9
-3 -19 -17 -53 -28 -69 -31 75
-38 -36 53 75 -127 77 25 -83
34 23 24 42 -64 12 -14 -31
-62 -1 104 46 -9 71 121 58
-85 61 -1 11 -109 -23 1 -6
-63 42 -7 -8 31 1 42 31
22 10 -24 -34 59 -18 -15 20
-43 -75 -59 -47 -83 -22 -6 29
-36 -29 -35 -94 -84 -73 -32 58
-2 -3 68 90 -63 44 50 -115
44 23 21 42 34 -4 -30 -57
-31 9 73 63 -22 106 110 38
-71 46 -27 -1 26 -31 -27 -34
-4 25 -35 -29 -58 58 20 39
97 2 -16 -59 78 -31 -19 1
9 -106 -93 -66 37 9 -24 52
-6 -21 -20 -95 -75 -81 -44 44
43 -14 81 123 11 -2 69 -127
65 49 42 73 -28 -19 -19 -64
-8 2 70 46 6 111 113 10
-59 55 -15 -19 -66 -26 -24 -45
40 10 -43 -72 -85 108 -4 35
56 -8 -25 -44 -37 -27 -12 6
-16 -127 -103 -98 -42 48 -49 67
-21 -14 -17 -83 48 -81 -37 59
00000000: 2ac9 2c2f d14a f9e7 4204 1a1d 320c 02fc
00000010: f2ef 7734 461a 7f43 d547 f20c 1ae2 2a18
00000020: 0629 1309 11d9 4709 0a1e f6f4 43ea 2929
00000030: 00c5 cce9 5dd1 0af7 fded efcb e4bb e14b
00000040: dadc 354b 814d 19ad 2217 182a c00c f2e1
00000050: c2ff 682e f747 793a ab3d ff0b 93e9 01fa
00000060: c12a f9f8 1f01 2a1f 160a e8de 3bee f114
00000070: d5b5 c5d1 adea fa1d dce3 dda2 acb7 e03a
00000080: fefd 445a c12c 328d 2c17 152a 22fc e2c7
00000090: e109 493f ea6a 6e26 b92e e5ff 1ae1 e5de
000000a0: fc19 dde3 c63a 1427 6102 f0c5 4ee1 ed01
000000b0: 0996 a3be 2509 e834 faeb eca1 b5af d42c
000000c0: 2bf2 517b 0bfe 4581 4131 2a49 e4ed edc0
000000d0: f802 462e 066f 710a c537 f1ed bee6 e8d3
000000e0: 280a d5b8 ab6c fc23 38f8 e7d4 dbe5 f406
000000f0: f081 999e d630 cf43 ebf2 efad 30af db3b
