ml/mask_tiny.tflite (tflite, 41312 bytes, 5 tensors)

conv2d_1/bias f4 [32]
00000000: 5348 30bc 53cb 123c 0698 ec3a 4b74 fd3b
00000010: dc49 1a3b b1d4 b3bb 7f7a ff3b 0566 c0bb
00000020: f86d c4bb 51fe fd3b b97f 17bc 5744 2a3a
00000030: a57f ea3b 2404 13ba b272 00bc 0856 9ebb
00000040: 1f38 023c 0125 94bb cb23 2fbb 4649 f93b
00000050: fd1c a83b 94dd 30bc d0e6 53b9 972b 02bc
00000060: 45fa 5ebb a8b3 96bb 29f7 0dbb bba9 ce3b
00000070: 62cc 6bba 3b47 8ebb 6d7b 7c3b 7545 ea3b
-0.010759431 0.008959609 0.0018050678 0.0077348105 0.0023542559 -0.0054880013 0.007796585 -0.0058715367
-0.0059945546 0.007751264 -0.00924676 0.0006495169 0.0071563297 -0.0005608222 -0.0078398455 -0.004832033
0.007947951 -0.004521013 -0.0026724215 0.007607612 0.005130409 -0.010795016 -0.00020208512 -0.007944963
-0.0034023684 -0.0045990534 -0.0021662212 0.0063068545 -0.0008994994 -0.0043419874 0.0038525716 0.007149393

conv2d/bias f4 [32]
00000000: da1f d93a 38f6 003c 5613 373b 1918 51bc
00000010: d5eb 13bc 5a00 e03b 3025 5d3b b36c 31bc
00000020: 5c5f 8f3b 0000 0000 8b95 7fbc 6e75 62bc
00000030: 1685 cb3b e88a 2dbc 77b8 31bc acd5 e0ba
00000040: ca8b 03bc 6b7f b53b 9f17 0f3c 6491 f2bb
00000050: 14b5 a3ba 2d65 b23b 77b0 03bc 165c 55bb
00000060: bcdf 723b ea90 d03b 9fe7 383a 14a5 87ba
00000070: e329 483b e43e 933b d739 8c3b c5ef ad3a
0.0016565279 0.007871203 0.002793511 -0.012762093 -0.009028395 0.0068359794 0.003374409 -0.010829139
0.0043753814 0.0 -0.015599619 -0.013821943 0.0062109334 -0.0105922 -0.0108472025 -0.0017153523
-0.008028934 0.005538871 0.008733659 -0.007402586 -0.0012489879 0.00544419 -0.008037678 -0.0032556108
0.0037059626 0.0063649314 0.0007053557 -0.001034888 0.0030542545 0.004493581 0.004279356 0.001327031

std.constant1 i1 [1, 25088] scale=0.00034689248 zero_point=0
00000000: 1d16 0d29 210d 04e5 e526 e808 db11 f0f4
00000010: 1826 2bd2 011f fe1f 16f1 f5e6 ea11 231f
00000020: e327 050f e3e9 dcee f40f 12fe 231c f027
00000030: d21a fe0b d1f0 230c d81d e1ff e90c 25f7
00000040: 2f07 0c2d f91c eb1c fee5 e6df 23e2 21ef
00000050: 13f6 222d 0f0d 0f23 e702 dccf f607 04e4
00000060: edfa d7f1 00ed 0f03 dce3 0af5 0828 f9de
00000070: 1de4 e12b e830 d9d5 defc f8ee f6dd 2bec
00000080: 0e10 e526 061c 0216 e3fa e3fa d703 fb1e
00000090: 31e3 d416 05fa 2221 f803 0520 0126 0118
000000a0: f208 051d f2e7 0309 1627 e4f1 001c fcf6
000000b0: fc18 d9fc f3e8 f205 0406 1012 330c f022
000000c0: 21f7 24f7 ef11 2d0c ff1a 1a16 27df 18de
000000d0: fb2f 19d6 26f2 091b 1827 26fe 2024 01e7
000000e0: 0439 0409 eae9 01e4 f10a 0fee 1417 e613
000000f0: dbe9 1d07 ebde 1c17 241c 22fa 160c 191f
0.010059882 0.007631635 0.004509602 0.014222592 0.011447452 0.004509602 0.0013875699 -0.009366097
-0.009366097 0.013181915 -0.008325419 0.0027751399 -0.012835022 0.0058971723 -0.0055502797 -0.0041627097
0.008325419 0.013181915 0.014916377 -0.015957054 0.00034689248 0.010753667 -0.00069378497 0.010753667
0.007631635 -0.0052033872 -0.0038158174 -0.009019204 -0.007631635 0.0058971723 0.012141237 0.010753667
-0.010059882 0.013528807 0.0017344625 0.0052033872 -0.010059882 -0.007978527 -0.01248813 -0.006244065
-0.0041627097 0.0052033872 0.006244065 -0.00069378497 0.012141237 0.009712989 -0.0055502797 0.013528807
-0.015957054 0.009019204 -0.00069378497 0.0038158174 -0.016303947 -0.0055502797 0.012141237 0.0041627097
-0.0138757 0.010059882 -0.010753667 -0.00034689248 -0.007978527 0.0041627097 0.012835022 -0.0031220324
0.016303947 0.0024282474 0.0041627097 0.015610162 -0.0024282474 0.009712989 -0.0072847423 0.009712989
-0.00069378497 -0.009366097 -0.009019204 -0.011447452 0.012141237 -0.0104067745 0.011447452 -0.0058971723
0.0065909573 -0.003468925 0.0117943445 0.015610162 0.0052033872 0.004509602 0.0052033872 0.012141237
-0.008672312 0.00069378497 -0.01248813 -0.016997732 -0.003468925 0.0024282474 0.0013875699 -0.009712989
-0.0065909573 -0.0020813548 -0.014222592 -0.0052033872 0.0 -0.0065909573 0.0052033872 0.0010406774
-0.01248813 -0.010059882 0.003468925 -0.0038158174 0.0027751399 0.0138757 -0.0024282474 -0.0117943445
0.010059882 -0.009712989 -0.010753667 0.014916377 -0.008325419 0.016650839 -0.013528807 -0.014916377
-0.0117943445 -0.0013875699 -0.0027751399 -0.006244065 -0.003468925 -0.012141237 0.014916377 -0.00693785
0.0048564947 0.0055502797 -0.009366097 0.013181915 0.0020813548 0.009712989 0.00069378497 0.007631635
-0.010059882 -0.0020813548 -0.010059882 -0.0020813548 -0.014222592 0.0010406774 -0.0017344625 0.0104067745
0.016997732 -0.010059882 -0.01526327 0.007631635 0.0017344625 -0.0020813548 0.0117943445 0.011447452
-0.0027751399 0.0010406774 0.0017344625 0.0111005595 0.00034689248 0.013181915 0.00034689248 0.008325419
-0.0048564947 0.0027751399 0.0017344625 0.010059882 -0.0048564947 -0.008672312 0.0010406774 0.0031220324
0.007631635 0.013528807 -0.009712989 -0.0052033872 0.0 0.009712989 -0.0013875699 -0.003468925
-0.0013875699 0.008325419 -0.013528807 -0.0013875699 -0.004509602 -0.008325419 -0.0048564947 0.0017344625
0.0013875699 0.0020813548 0.0055502797 0.006244065 0.017691517 0.0041627097 -0.0055502797 0.0117943445
0.011447452 -0.0031220324 0.01248813 -0.0031220324 -0.0058971723 0.0058971723 0.015610162 0.0041627097
-0.00034689248 0.009019204 0.009019204 0.007631635 0.013528807 -0.011447452 0.008325419 -0.0117943445
-0.0017344625 0.016303947 0.008672312 -0.014569485 0.013181915 -0.0048564947 0.0031220324 0.009366097
0.008325419 0.013528807 0.013181915 -0.00069378497 0.0111005595 0.01248813 0.00034689248 -0.008672312
0.0013875699 0.019772872 0.0013875699 0.0031220324 -0.007631635 -0.007978527 0.00034689248 -0.009712989
-0.0052033872 0.003468925 0.0052033872 -0.006244065 0.00693785 0.007978527 -0.009019204 0.0065909573
-0.012835022 -0.007978527 0.010059882 0.0024282474 -0.0072847423 -0.0117943445 0.009712989 0.007978527
0.01248813 0.009712989 0.0117943445 -0.0020813548 0.007631635 0.0041627097 0.008672312 0.010753667

std.constant2 f4 [32, 3, 3, 3]
00000000: 32ba 9fbc 6f51 383d 30ba b0bd 886a 93bc
00000010: 9860 743c 59c8 00be 1c1b 5f3d 778f 973d
00000020: 0c14 053e baba c23c 5dfc 853d 686b c4bd
00000030: 0b80 cbbb 1f6c 833d 1157 203d 64cf a2bc
00000040: 1a6d c7bd a325 d5bd 2071 d1bc 195a 853d
00000050: eec9 34bd be20 96bd 0ebf fd3d 762e 953d
00000060: 2a19 943d c0ee e9bc 42f6 b3bd 67a9 7abd
00000070: 36e0 d93b 8d73 783d 5988 e93d 3d45 ef3d
00000080: 8852 793c a4db db3d d340 89bb 463c b6bc
00000090: fcde 3cba 220e 3c3d 9d25 233d 7087 01bd
000000a0: abb9 69bd 7664 e6bb d0e2 91bd 367f 04be
000000b0: 2684 613d 506b b53d 64f7 8d3d e0b9 b4bd
000000c0: 94a8 74bd 6e4d ddbd 2e02 f93d 1356 2e3c
000000d0: 3d17 cfbd 81d8 babc b33a 9fbd 24f3 52bd
000000e0: 9eca 16bd 3cb6 3a3d 84d4 77bc 6183 f8bd
000000f0: 6e47 eb3d 639e ac3d 34e3 aebc 45d2 b33c
00000100: 2a41 bc3d 9754 bb3d 92ef 053e 9eb2 88bd
00000110: d240 a2bd e737 82bd 0764 cc3c f931 473d
00000120: c4a4 8cbd 0536 ac3d d926 fbbd 2a40 59bd
00000130: 6d74 4fbd 6df6 39bd 13f8 9cbd 7376 613d
00000140: e8f4 ad3d eceb 6bbd 8eed e03d 9176 d9bd
00000150: 86be b5bd 7da8 be3d 740b 003e a2ec c4bd
00000160: 1380 dabc 0aa0 36bd 6195 943d 5173 233b
00000170: 5e95 0abe 5ef7 b3bd 0c49 cbbc 2904 663d
00000180: 0163 a5bd ba3a 91bc 0a1a 3fbd afaf da3d
00000190: 3194 ed3b 8200 923d 2826 6ebd 0127 023e
000001a0: fe94 013e df7c e63d 27cd b9bd 6e12 c03d
000001b0: 335b 473d 3d94 f8bd 5647 cf3d e516 1bbd
000001c0: 2689 0a3e dc5a 9d3c 9ba8 56bd 3d6f dd3c
000001d0: 808a 113d 8d86 95bd 6e5f d43d 29b9 35bd
000001e0: c45b de3d dca9 d53d 2643 083e ae83 a1bd
000001f0: 5d8a c13b b3d6 f53d d5ae ff3c 15e7 893d
00000200: c982 813d 8487 ca3c ee52 e33c 5c84 1c3d
00000210: e4b7 6b3d 36a0 c4bd febe e83d bbb7 ec3d
00000220: e703 0c3e e4b2 adbd 8224 97bd aa08 083d
00000230: 8bf8 ddbd 3f01 b0bd 6fdd 1bbd 0f78 093e
00000240: 06e6 73bd 528c ab3c 966a 803d ea0e 22bd
00000250: ef66 fa3d 429a ad3d 98de 993d 066f c0bd
00000260: 50e7 523d 9510 d53d 404a d03d 3b1e 943d
00000270: cfe3 7cbc 6c5c c93d 7c0d 9abd b90c 863c
00000280: 0b8c ecbb f2d4 cbbc 6159 083d 1531 913d
00000290: b6b3 45bd a6d1 b23d c227 c63d 41f3 abbd
000002a0: d9fb a6bd 70cc 943d 6736 a1bc e464 003e
000002b0: 0a0b 02be e9a1 d13d d941 a83c bcc1 f3bc
000002c0: 49ed 69bc 6daf cdbd 4693 a73d fc2c 0bbe
000002d0: 7a24 d2bd 418c db3d 54c8 f7bb ff45 35bc
000002e0: 8234 a5bd 4c61 a2bb 8f2e 31bd a67a c93b
000002f0: 0e45 ab3d 0e61 92bd a8f8 0ebd 7578 fb3d
00000300: 60ae b93d f457 51bd f342 e13d d3ec 9bbc
00000310: f64d bcbc f7ea aa3d 187e 40bd 9dee aabc
00000320: 3fc8 d7bd 763a f43d 0538 203d 3ff3 ccbd
00000330: 711a 7bbd ceee 2f3d 075a 0b3e ca0b d23d
00000340: 7432 723c 4270 05bd d1df b23d 122c eb3d
00000350: 75da 17bd 9f94 83bd 0852 393d 53ac b2bd
00000360: ffaa 6dbd 51f6 abbc 082e cf3d 625c 0c3e
00000370: 94f2 8f3d 2951 e33d 27b3 1cbd 152b eabc
00000380: 9627 5c3c da54 91bc e5da 763d 48e5 83bd
00000390: b14f ae3d 036e cd3d b660 e13d 6830 8d3d
000003a0: 0ad3 cf3c 9b38 ef3d f6e3 3cbc 4bda ffbd
000003b0: 2336 bcbd 8e01 e63c 4b9c d63d 434a e5bc
000003c0: df6a 92bd 797e c03d 6609 f2bd c45e f7bd
000003d0: fe24 c63d b941 07be 7853 86bd 698e f2bd
000003e0: 609a bbbb c2d6 90bd b248 09bd 9ca3 7d3d
000003f0: 0002 0abe e09e 9cbc 4095 073b 1886 9a3d
-0.019497965 0.044999536 -0.086292624 -0.017995134 0.014915608 -0.12576427 0.054469213 0.074004106
0.12995929 0.023770679 0.06542275 -0.095907986 -0.0062103323 0.06417107 0.039145533 -0.019874282
-0.09737606 -0.10407569 -0.025566638 0.065113254 -0.044137888 -0.07330464 0.123899564 0.07284252
0.07231362 -0.028556228 -0.08787204 -0.06119671 0.0066490425 0.060657073 0.114029594 0.11683128
0.015217431 0.107352525 -0.004188636 -0.022245537 -0.0007204858 0.045911916 0.039830793 -0.031623304
-0.057061832 -0.007031019 -0.07123339 -0.12939152 0.055057667 0.08858359 0.06931952 -0.08824515
-0.05973108 -0.10805784 0.12158619 0.010640639 -0.10111854 -0.022808315 -0.07774868 -0.05150141
-0.036814325 0.04558395 -0.015126351 -0.121344335 0.114882335 0.08428647 -0.021348573 0.02195085
0.091921166 0.091469936 0.1307967 -0.066746935 -0.0792252 -0.06358319 0.02495004 0.048631642
-0.06867364 0.08408741 -0.12263269 -0.053039707 -0.05064814 -0.045401026 -0.07664504 0.055044603
0.08493978 -0.05759804 0.1098281 -0.10618318 -0.0887423 0.0930948 0.12504369 -0.096154466
-0.026672399 -0.04458622 0.07255054 0.002494056 -0.13533542 -0.08787416 -0.024815105 0.05615631
-0.08075524 -0.017728198 -0.046655692 0.1067804 0.007250332 0.07129003 -0.058141857 0.12710191
0.12654492 0.11254286 -0.09072333 0.09378515 0.04867096 -0.12137649 0.10121028 -0.03786363
0.1352888 0.019208364 -0.05240689 0.027030582 0.035532475 -0.07301054 0.10369764 -0.044366036
0.10857347 0.10432789 0.13306865 -0.07886444 0.0059063868 0.12003841 0.031211296 0.067335285
0.063237734 0.024722822 0.027749505 0.038212165 0.05754842 -0.0960087 0.11364554 0.11558481
0.13673364 -0.08481386 -0.0738001 0.033211388 -0.108384214 -0.08593988 -0.038052972 0.13424705
-0.05954554 0.020940933 0.0627033 -0.039565004 0.12226664 0.08476688 0.075131595 -0.09396176
0.051490128 0.104035534 0.10170412 0.072323285 -0.015435173 0.09832081 -0.07522103 0.016363489
-0.007218843 -0.024881814 0.033288363 0.0708944 -0.04826709 0.087313935 0.09675552 -0.083960064
-0.08153505 0.07265556 -0.019679261 0.12538487 -0.12699524 0.1023596 0.020539211 -0.029755466
-0.014277765 -0.100432254 0.08182387 -0.13591379 -0.102608636 0.10720111 -0.007561723 -0.011064052
-0.08066656 -0.0049554463 -0.043257292 0.006148654 0.083627805 -0.07147418 -0.034905106 0.12278835
0.090664625 -0.05110927 0.10999098 -0.019033825 -0.022986393 0.08345597 -0.046995252 -0.020865733
-0.10536241 0.11925213 0.039115924 -0.10007333 -0.061304513 0.04295235 0.13608561 0.10256155
0.014782537 -0.03257776 0.08734096 0.11483015 -0.03707357 -0.064248316 0.045244247 -0.087242745
-0.058024403 -0.020991476 0.10116202 0.13707116 0.0702869 0.110994644 -0.03825679 -0.028584996
0.013437172 -0.017740656 0.060267348 -0.06440216 0.08511294 0.10030749 0.11004774 0.068939984
0.025369186 0.116807185 -0.0115289595 -0.12492808 -0.09190013 0.028076913 0.10479029 -0.027989512
-0.0714929 0.09399123 -0.11818199 -0.12078622 0.096750244 -0.13208665 -0.06558889 -0.11843569
-0.00572519 -0.07072212 -0.033516593 0.06192361 -0.13477325 -0.019118726 0.0020688325 0.075451076

std.constant3 i1 [32, 3, 3, 32]
00000000: 4f46 a70f bdd1 2ea9 d7ca 7457 e1fc caca
00000010: c3c0 0e55 bd21 6ef7 e7c4 9c05 e507 c5bf
00000020: 5137 c6b7 65cb a215 d841 32f7 fc60 1c1c
00000030: 534b b4b4 e950 582f a6d9 9cc9 fe5b de3c
00000040: 4b64 f545 5b4a 61e8 5da4 af31 e963 33d8
00000050: f751 9ccc c5d7 0102 1186 2f5f 0635 aa32
00000060: 3bec b842 9ba7 3c53 3e35 4f62 1a57 0f3d
00000070: 63f0 4ab4 5f72 08ff 03ea 2766 a249 23fc
00000080: 40fa 3407 58b7 0923 064f 09a4 590f 2f06
00000090: 4c3c 8d3e 2b03 6faf e915 6530 1679 9ce8
000000a0: 97a4 bae4 e840 02f6 f642 c8a4 c1ac 42bf
000000b0: 2816 87f4 2520 2259 52f9 08ec 5ddd fab2
000000c0: 4de0 a163 21b1 afbc 482d 06fd e69d 2e2a
000000d0: bffe c357 dad9 5d4f 5854 cb2e c37d 61d2
000000e0: 35c7 3f42 e91f c024 12f8 26c5 bafd bbef
000000f0: c5aa 22af e74a f317 9081 1713 b816 ef0c
79 70 -89 15 -67 -47 46 -87
-41 -54 116 87 -31 -4 -54 -54
-61 -64 14 85 -67 33 110 -9
-25 -60 -100 5 -27 7 -59 -65
81 55 -58 -73 101 -53 -94 21
-40 65 50 -9 -4 96 28 28
83 75 -76 -76 -23 80 88 47
-90 -39 -100 -55 -2 91 -34 60
75 100 -11 69 91 74 97 -24
93 -92 -81 49 -23 99 51 -40
-9 81 -100 -52 -59 -41 1 2
17 -122 47 95 6 53 -86 50
59 -20 -72 66 -101 -89 60 83
62 53 79 98 26 87 15 61
99 -16 74 -76 95 114 8 -1
3 -22 39 102 -94 73 35 -4
64 -6 52 7 88 -73 9 35
6 79 9 -92 89 15 47 6
76 60 -115 62 43 3 111 -81
-23 21 101 48 22 121 -100 -24
-105 -92 -70 -28 -24 64 2 -10
-10 66 -56 -92 -63 -84 66 -65
40 22 -121 -12 37 32 34 89
82 -7 8 -20 93 -35 -6 -78
77 -32 -95 99 33 -79 -81 -68
72 45 6 -3 -26 -99 46 42
-65 -2 -61 87 -38 -39 93 79
88 84 -53 46 -61 125 97 -46
53 -57 63 66 -23 31 -64 36
18 -8 38 -59 -70 -3 -69 -17
-59 -86 34 -81 -25 74 -13 23
-112 -127 23 19 -72 22 -17 12
