ml/model1.tflite (tflite, 152876 bytes, 13 tensors)

dense/bias f4 [128]
000000 62 d7 10 bb 8a b6 12 3d 62 52 f5 3c 83 41 14 3d
       -0.0022101034 0.035818614 0.02994651 0.03619529
000010 52 83 2b 3d fe dc 9d bc f6 b1 e0 bc 50 62 13 bd
       0.041873284 -0.019270416 -0.027428608 -0.03598243
000020 da e1 08 3d dd c0 0a 3d 04 3c 08 3c 4f d2 18 bd
       0.033418514 0.033875335 0.00831509 -0.03730994
000030 8d 3e 69 bc 09 77 85 3d 6f 07 3f 3d 0f 7a 62 bd
       -0.014236105 0.06516845 0.04663795 -0.055292185
000040 99 52 42 3d 4f 07 99 bc f0 d9 02 bd 10 84 43 bc
       0.047442053 -0.018680243 -0.031946123 -0.011933342
000050 34 77 5b 3d c4 66 0f bd 80 8b 98 bb c5 12 33 bc
       0.053580478 -0.035010114 -0.0046553016 -0.010929768
000060 b1 dc c2 bc 2f 46 5c 3d 18 c7 2e bd 15 85 0a 3d
       -0.023786874 0.05377787 -0.04267034 0.033818323
000070 84 26 87 bc 8f 38 16 bd d1 62 37 3d 70 52 0f bd
       -0.016497858 -0.036675032 0.044771973 -0.034990728
000080 42 28 06 3a 7e 46 d5 bb 43 81 a6 3b 2b 15 cb 3b
       0.0005117693 -0.0065086475 0.005081327 0.006197592
000090 38 22 89 bb 3a c0 fd 3c 6c 93 10 3d 9f 35 35 3d
       -0.0041849874 0.03097545 0.035296842 0.04424059
0000a0 3c 2d 08 bd 63 0c fc bb b6 23 9e b9 77 ca 26 bc
       -0.033246264 -0.0076919063 -0.00030162715 -0.010180107
0000b0 5d 58 07 bd 79 ff dc bb 49 42 2f bc 1e fd 42 bd
       -0.033043254 -0.006744322 -0.010696956 -0.047604673
0000c0 42 3f 68 bc 98 1d fe ba fc e6 b0 ba dd 70 8a 3b
       -0.014175238 -0.0019387482 -0.0013496573 0.00422488
0000d0 0f 16 f1 3c e6 c4 0f 3d d2 56 02 bd a7 a6 60 3d
       0.029429464 0.035099886 -0.03182108 0.054846432
0000e0 75 0d d6 bc 58 0e 15 bd db af 11 bd 5f a9 14 3d
       -0.026129464 -0.036390632 -0.0355681 0.036294337
0000f0 59 b9 80 3c 15 e1 a8 bc 1c ff a8 3c 70 f5 f2 bc
       0.01571338 -0.02061514 0.020629458 -0.02965805
000100 2e 17 9b bc 5e b5 0d 3d cb b3 f1 bc d9 b0 f2 bc
       -0.018931951 0.034596793 -0.029504677 -0.029625343
000110 8a 20 6c bc 46 d2 59 3d 09 71 84 3b 53 fb 73 3d
       -0.014412055 0.053179048 0.004041795 0.059565853
000120 b9 bb 69 3c a5 30 1e 3b 41 76 7f 3c 05 3d 0c bd
       0.014265948 0.002413788 0.015592159 -0.03423788
000130 99 c6 11 bd 9a 24 85 3d 33 6c 13 bd 29 9a 0e 3d
       -0.035589788 0.06501122 -0.03599186 0.034814987
000140 73 43 08 bd 9d 8c 81 bb cc 8e c5 3b b4 0f 11 3b
       -0.03326745 -0.00395353 0.0060289856 0.0022134604
000150 09 ee dc bc b1 b7 b0 3c db 48 9f bb 24 c9 5c bc
       -0.026968973 0.021571966 -0.00486098 -0.01347569
000160 e1 70 80 bb 36 ea 94 3c ff 29 2e 3d 22 61 f0 bc
       -0.003919706 0.018178087 0.04252052 -0.029343192
000170 5d 81 aa bc 6c e3 cc bc 3e 1e c3 3b d8 9f 50 3d
       -0.020813638 -0.025010787 0.005954533 0.05093369
000180 47 e5 54 3d f9 2b 7c bc 00 00 00 00 ab 06 64 3d
       0.05197647 -0.015391343 0.0 0.05567042
000190 06 03 12 3d 34 77 23 3d d1 fe c9 3c c0 4b c7 bc
       0.035647415 0.039908603 0.024657639 -0.024328113
0001a0 8b 51 db bc fb c1 bb bb f2 a9 0f bd 86 b8 0e 3d
       -0.026772281 -0.0057299114 -0.03507418 0.034843944
0001b0 54 2b 8e bb af c1 67 bc 58 ed cb 3a 92 fb b7 bb
       -0.004338661 -0.014145299 0.0015558405 -0.0056147063
0001c0 26 85 2e 3d f9 6b 28 3d f9 21 11 3d d7 be d1 3b
       0.04260745 0.041118596 0.03543279 0.0064009237
0001d0 3e 84 cb 3a 7d 71 12 3d 3c 1c b7 bc 46 09 32 3d
       0.0015527082 0.035752762 -0.02235233 0.043465875
0001e0 3c 7e df 39 06 73 23 bd cf af 4c 3d 90 49 f1 bb
       0.00042627926 -0.039904617 0.04997235 -0.0073635057
0001f0 ee c9 10 3d b8 04 40 3d 20 f7 b3 bb 23 ca 09 bd
       0.035348825 0.0468795 -0.005492106 -0.03364004

conv2d_4/bias f4 [32]
000000 ec 9d d9 3c 42 b3 a8 bc 85 85 02 bc 5f e6 c0 bc
       0.02656456 -0.02059329 -0.007966404 -0.02354735
000010 7a f4 80 bc 42 72 93 3a 8c a1 17 bc 8f 8d 6b bc
       -0.015741576 0.0011249261 -0.009254824 -0.014377012
000020 4d 99 03 3d 07 6f 1d bc 98 bd 51 bc 92 e9 d9 3c
       0.03212862 -0.0096089905 -0.01280155 0.026600633
000030 ac 33 5a bc 8a 67 d4 3c 10 74 2a 3d a2 35 1d bc
       -0.013317984 0.025928278 0.041614592 -0.009595307
000040 f8 7c 76 b8 ed 09 d0 bc ec dd e8 b9 ff f2 e6 bb
       -5.8767357e-05 -0.025395358 -0.00044415833 -0.0070480104
000050 9b 95 da bb d8 56 31 bc 2c 7b 45 bc c8 2b 59 bc
       -0.0066706664 -0.010823928 -0.012053292 -0.013255067
000060 d2 71 c1 bb 19 ba a9 bc 1b 2a de 3c 88 ad 74 bc
       -0.005903461 -0.020718621 0.027119687 -0.014933951
000070 8c 3a 37 bc 08 42 bf bb d9 52 9e bc 9d a1 7a bc
       -0.011183392 -0.005836729 -0.019326614 -0.015297321

conv2d_3/bias f4 [32]
000000 6c 23 fe bc 04 6d 61 3c 49 41 30 3b b9 49 3e bc
       -0.03102275 0.0137589015 0.0026894382 -0.011614257
000010 44 d9 dd 3c 92 29 c1 bc a1 72 87 3a 51 73 a4 3c
       0.02708114 -0.023579393 0.0010333845 0.020074518
000020 2a c8 41 bc 85 f9 26 bc b5 77 30 3c 29 4a 80 bb
       -0.011827508 -0.010191326 0.010770728 -0.0039150906
000030 60 e2 94 3b 61 70 c9 bc 37 04 aa 3b 4a 4e 1b ba
       0.0045435876 -0.02458972 0.0051884907 -0.0005924447
000040 4f ff 4e bc 1e c3 b9 bc ff 67 f4 bb 5b 19 82 bc
       -0.0126341125 -0.022676047 -0.0074586864 -0.015881231
000050 c8 a5 b2 bc a5 05 61 bc 21 b3 39 bc 66 e2 a7 bc
       -0.021807566 -0.013734256 -0.011334212 -0.020493697
000060 01 ae 82 3c c2 38 e5 bc ee 37 8e bc 1b 45 84 bb
       0.015952112 -0.027981166 -0.017360654 -0.0040365583
000070 53 27 06 3d 43 91 77 bc 70 8a 11 bb ee 52 e1 bb
       0.032752346 -0.015110317 -0.002220776 -0.006876341

conv2d_2/bias f4 [32]
000000 3e 69 0f bb ad bc ef bc 12 8a 66 3c 91 68 59 bc
       -0.0021882798 -0.029264772 0.014071004 -0.0132695595
000010 a1 c1 bb 3c 3a 16 57 bc ea 42 a9 3c 30 9c 85 bb
       0.022919478 -0.013127858 0.02066179 -0.004077457
000020 c6 5c 13 bc 9d c0 96 3c 44 c3 af bc f0 81 6b bc
       -0.008994287 0.018402392 -0.021455415 -0.014374241
000030 02 ba 70 bc 0c 28 f9 39 7c 6d 2b bc 34 28 44 ba
       -0.014692785 0.00047522818 -0.010463115 -0.00074827974
000040 af af c4 3c 5a 7a 78 bc 74 07 ab 3b 12 06 8d bc
       0.024009554 -0.01516589 0.0052193943 -0.017214809
000050 86 2d 39 3b 7b 0b 04 3c 58 17 0c bd 19 cd f5 bb
       0.0028255894 0.008059378 -0.03420195 -0.007501256
000060 26 35 92 bc b5 48 9b 3b bd 00 d9 ba 0f d3 2c 3c
       -0.017847609 0.004738892 -0.0016556006 0.010548367
000070 48 58 4f 3a 33 e4 9c bc 72 36 8c 3c ec 05 63 bb
       0.0007909578 -0.019151783 0.017115805 -0.003464098

conv2d_1/bias f4 [32]
000000 ee ca 89 bc c0 37 fb 3a 03 f6 7f 3b d5 93 15 3b
       -0.016820397 0.0019166395 0.0039056547 0.002282371
000010 f2 78 1b 3b 2d 59 7a bc 8e 85 8e 3c 68 25 88 3c
       0.0023723212 -0.01528005 0.017397668 0.0166194
000020 30 e4 8e 3c 3c a8 ed 3a 24 20 86 bb 0d 68 c5 bc
       0.017442793 0.0018131803 -0.004093187 -0.024097467
000030 a0 e3 85 ba e2 3a 5c bc 77 2b 13 3c 4a cf 02 bd
       -0.0010214932 -0.013441773 0.008982531 -0.031935968
000040 72 26 bf 3c ee 9f c6 3c 53 2c f1 bc cc 5c d5 bc
       0.023333762 0.024246182 -0.02944008 -0.026045226
000050 42 cb 79 3c 24 b7 bb bc 6f 22 a1 bc 86 c0 99 3c
       0.015246214 -0.022914477 -0.01966974 0.01876856
000060 93 52 06 3c 1c 65 44 3b 14 df d0 bc 44 45 0a 3c
       0.008198398 0.0029967492 -0.025496997 0.008439366
000070 31 fe 72 3c b0 3e 91 3c a9 1f 9f bc cc 39 05 3c
       0.014831112 0.017730087 -0.019424276 0.008131456

conv2d/bias f4 [16]
000000 23 0f 8c 3c 7a 36 63 ba c3 c3 1f bc 39 1b 1b 3c
       0.017097061 -0.00086674804 -0.009751263 0.00946694
000010 00 8b bf bc fd c8 b2 ba fa dc c8 ba 20 2f 22 bd
       -0.02338171 -0.0013640221 -0.0015324645 -0.039595723
000020 2c 44 48 3b 16 22 eb 3b 2d 35 20 3c 48 b4 a9 bb
       0.0030558212 0.007175694 0.009778303 -0.005178962
000030 cd 46 d0 3c 08 ca ca 3c f8 1b 01 3c 0a fd c7 ba
       0.025424385 0.02475454 0.007880203 -0.0015257907

std.constant1 f4 [128, 32]
000000 5f ab 39 be 32 b1 7d 3d 0a 64 10 be a5 61 d0 3d
       -0.18131779 0.061936565 -0.14100662 0.10174874
000010 5f ff 70 3c a5 75 2e 3d ca ab e8 3c f3 27 c8 bd
       0.014709323 0.042592663 0.028402228 -0.09773245
000020 f9 c5 0f 3e 90 4d 1f 3c 1f 16 27 3e 1a 36 8a 3d
       0.14040364 0.009723082 0.16317032 0.067486
000030 db 13 06 be 1e db 27 bc 41 d0 3c be eb f9 50 bd
       -0.13093512 -0.010245113 -0.18438818 -0.05101959
000040 94 22 2f be 42 b0 1f be 0c 75 75 3d 27 9d 4b 3c
       -0.17103034 -0.15594581 0.059926078 0.012427605
000050 10 48 9d bd 7c 48 9f bc 79 6c b6 3d c4 e7 c0 3d
       -0.076797605 -0.019443743 0.08907408 0.09419206
000060 3b 23 51 3d bc b7 aa 3c 09 fe f6 bd e8 40 83 bd
       0.05105899 0.020839565 -0.12060172 -0.06408864
000070 f9 62 9a bd 8c 90 12 bd b8 89 60 bd a0 23 30 3a
       -0.07538409 -0.035782382 -0.05481884 0.0006719176
000080 19 a7 18 3e 19 17 a3 bc e5 cd 0f bd bb 27 db bd
       0.14907493 -0.019908475 -0.035108466 -0.10700937
000090 3d 7c 08 3e 47 d6 b9 bd 69 66 b8 3d 9b f0 d3 bd
       0.13328643 -0.09074073 0.09003908 -0.10348626
0000a0 71 51 06 3e 7c 32 97 bd 11 ec b4 3d f6 58 50 3e
       0.13117005 -0.07382676 0.088340886 0.20346436
0000b0 71 a3 d9 3d e5 e2 8a bd 2d b0 6d bc 87 b7 93 bc
       0.10626877 -0.06781558 -0.014507336 -0.018031849
0000c0 94 77 13 be b2 04 00 be 82 3e 16 3e 86 79 a9 3d
       -0.14401084 -0.12501791 0.14672282 0.08275132
0000d0 24 bc f0 3d 58 dc d0 bd ee 09 ab 3d 37 f7 2b be
       0.11754635 -0.10198277 0.08351503 -0.16793524
0000e0 58 1c a6 bb b2 41 e5 3c 89 9a f2 3c 6e c9 b6 3c
       -0.005069297 0.027985428 0.029614704 0.022312846
0000f0 e3 26 1e 3d cc ed 45 be e6 c6 3d bc f6 d7 f1 3b
       0.038611304 -0.19328994 -0.011583066 0.007380481
000100 94 7a 3c 3e 07 08 32 be d0 68 ee 3d 30 be c6 bc
       0.18406135 -0.17385875 0.11641085 -0.02426061
000110 dc 22 ce bc 90 bb 81 3d cd 2b 9e 3d 19 b7 0c be
       -0.025163107 0.06334603 0.07723198 -0.13741721
000120 d7 fb 8c 3d 3c eb 14 3c 25 5f 2a be f3 02 01 bb
       0.06883972 0.009089287 -0.16637857 -0.0019685596
000130 0c b7 0f 3e 1f d7 55 bb eb 48 e5 3c ab 68 ea bd
       0.1403467 -0.0032629443 0.027988872 -0.11445745
000140 3b 6a 38 3c 47 fc d8 bd ab 92 cd bd 32 7b 0a be
       0.011255796 -0.10594993 -0.1003774 -0.13523558
000150 09 f9 8b 3d 71 5a 93 3d 37 4e 87 3d 9e 9b 06 bd
       0.06834609 0.07194985 0.06606715 -0.032863252
000160 b3 62 90 3d 71 c5 1f 3e d5 8e b6 3d 75 c9 17 3d
       0.070500754 0.15602662 0.08913962 0.03705736
000170 6b ca cd bd e7 69 35 3e c7 af 88 bd 1f 2c ef 3d
       -0.10048374 0.1771618 -0.06674152 0.11678337
000180 7d 08 9e bd 4a 1f ac bb d9 ff fe 3d c4 0a f6 bd
       -0.07716463 -0.0052527534 0.12451143 -0.12013772
000190 c6 9e 1c bd 35 4e 2a 3e 42 31 52 3a cc a3 75 3d
       -0.038237356 0.16631396 0.0008018204 0.059970662
0001a0 bb f4 85 3d 65 72 19 3c 35 ad e6 3d 0c c0 85 3d
       0.06540819 0.009365653 0.11263505 0.06530771
0001b0 31 69 2a 3e 2d 16 e0 bd 99 eb d0 3d 3b c0 9b 3d
       0.1664169 -0.1094173 0.10201187 0.076050244
0001c0 38 27 3d 3c 8d a9 aa bd 35 38 e8 3d a2 97 26 3e
       0.011544995 -0.083331205 0.11338846 0.16268781
0001d0 81 23 43 3e 0d 30 fa 3d 70 6b 07 bd 9e c0 06 be
       0.19056512 0.12216196 -0.033061445 -0.13159415
0001e0 27 ca 15 bd 62 57 07 be 32 bf 84 bd b9 45 9a 3d
       -0.03656974 -0.13216928 -0.0648178 0.0753283
0001f0 dd 8c 1d be 50 98 d6 3d 4a f6 1c 3e 35 80 f5 bd
       -0.15385766 0.1047827 0.15328327 -0.11987344
000200 41 08 52 3e b1 2c 31 be 95 52 ba 3c 33 ba 1a be
       0.20510961 -0.17302205 0.022744456 -0.15110092
000210 74 8b db bc 2b a2 1d be cc 60 88 3d 49 9f 09 3e
       -0.026799895 -0.15393893 0.066590875 0.13439669
000220 c0 ca b7 bd f6 9f 00 be 8c b6 9f 3d f1 44 ae bd
       -0.08974218 -0.1256102 0.0779849 -0.08509243
000230 45 3b 21 be 0b df a2 bd b7 06 32 3e 30 a3 e1 bd
       -0.15745266 -0.07952698 0.17385374 -0.11017454
000240 4c 85 83 bd 10 4a 2c be d3 c4 05 3e 2d 10 f8 3d
       -0.06421909 -0.16825128 0.13063364 0.1211246
000250 1b 05 df bd 36 a5 b7 bd 52 13 05 3e 00 66 97 3d
       -0.10889646 -0.08967058 0.12995651 0.07392502
000260 95 eb 9e 3d 30 d4 1e bb d2 46 8d bb 0c 11 c0 bc
       0.077597775 -0.002423536 -0.004311421 -0.023445629
000270 06 48 25 be 83 5d 0b be 0a e8 a4 bd bc c1 17 3e
       -0.16140756 -0.1360989 -0.080520704 0.14819998
000280 43 44 e0 bd c7 2b 55 3d f8 4d 06 be ab 92 11 be
       -0.1095052 0.052043702 -0.1311568 -0.14216106
000290 7b ee d7 3d 39 6f ea 3d ce 9e ad bd f1 b4 e5 bd
       0.105435334 0.11446995 -0.08477555 -0.112161525
0002a0 02 9a 2d be b6 62 47 bd b2 ab f5 3d bd 36 4a 3d
       -0.1695328 -0.048678122 0.11995639 0.04936861
0002b0 a0 15 85 bd e1 49 1d bd 8d 75 5b be b1 a0 90 bc
       -0.06498265 -0.038400535 -0.21431561 -0.017654749
0002c0 9e 0c 2c 3e 00 d9 e5 bd aa fd 0e 3e eb 3b ac bc
       0.16801688 -0.1122303 0.13963953 -0.021024665
0002d0 77 a0 95 bd 7d ab af 3d 3a 73 0b 3e 4e 42 26 bd
       -0.07305997 0.08577631 0.13618174 -0.040590577
0002e0 a2 cc 54 3c b7 dd 14 3e 2b 59 4f 3d d9 e7 1f 3e
       0.012988241 0.14537703 0.050622147 0.15615787
0002f0 7b 25 48 bd cf 2f 65 bc 24 a5 d5 bc ed 0b c1 bd
       -0.04886387 -0.013988449 -0.026079722 -0.09426103
000300 1a 35 b9 bd 97 98 29 3e fb ab 20 be 3d 5d 2d bd
       -0.090433314 0.16562115 -0.15690605 -0.042325247
000310 cf ed 46 be 18 84 35 be 2a 2d c0 bd 6c 30 39 3d
       -0.19426654 -0.17726171 -0.09383614 0.045212194
000320 f0 9d 25 be 5b 3b 47 3e 70 e2 0b 3e 48 ca 5a b9
       -0.1617353 0.19456236 0.13660598 -0.00020865456
000330 1c 24 94 3d fd df 55 bd aa fa d6 3d 63 a3 a6 bd
       0.0723345 -0.052215565 0.10497029 -0.08136632
000340 3e a1 66 bd 57 5f 14 be 47 1d f1 bd bb ba 1a be
       -0.056306116 -0.14489494 -0.11773162 -0.15110295
000350 1e 8f 82 3d 83 61 d0 3c 73 0f 61 3d 5c 32 12 3e
       0.06374954 0.025437122 0.054946374 0.14277023
000360 38 3e 0d 3e fa 90 58 bd 36 49 19 3e 0c 98 c6 bd
       0.13793266 -0.052872635 0.14969334 -0.096969694
000370 bd 4e 0c be 50 6c 0e 3e 8e 15 1a be 78 aa 9c 3c
       -0.13701911 0.13908505 -0.15047285 0.019124255
000380 85 85 b9 3d e8 fd 16 3e 44 12 03 be e5 10 9c bc
       0.0905867 0.14745295 -0.12799937 -0.019051025
000390 e0 c4 23 3e a3 38 88 bd 18 06 3e 3e e1 46 ea bd
       0.1599307 -0.066514276 0.18557012 -0.114393
0003a0 11 4d d3 bd 60 ed 92 3d d9 55 18 3e b0 70 c8 bb
       -0.103174336 0.07174182 0.14876498 -0.006116949
0003b0 e7 a4 e3 bd 8d 7e 35 be 60 42 33 3e cc eb 0e 3d
       -0.11115437 -0.17724057 0.17505789 0.034892842
0003c0 46 4b 0e 3e be 06 49 3d e1 12 1c bd e5 63 4e bd
       0.13895902 0.049078695 -0.03810394 -0.050388236
0003d0 0d 92 ec bd 46 2d 3b 3e 1e 0a 04 be 11 1a c7 3d
       -0.115512945 0.18278989 -0.12894484 0.09721769
0003e0 1c 1d 35 3e ee d6 45 3d 11 67 53 be f9 14 37 bd
       0.17686886 0.048300676 -0.20644785 -0.044697735
0003f0 be b7 0a 3e cb 9e 1a 3c cf e9 45 3e a7 80 c8 3d
       0.13546655 0.009437273 0.19327472 0.097901635

std.constant2 f4 [1, 128]
000000 d5 38 0d be e2 3c cb bd d9 58 12 be 7e 2c 1d be
       -0.13791211 -0.09923722 -0.14291705 -0.15349004
000010 61 d2 2a be b9 eb b8 b9 14 66 aa 3b a4 9a 37 3e
       -0.16681816 -0.00035270842 0.005200157 0.17930084
000020 d8 40 34 be 98 87 3c bd 60 00 18 3e 56 9c 98 3d
       -0.17602861 -0.04602775 0.14843893 0.07451694
000030 19 42 2b 3e d0 65 ef bd 52 1f 06 be 18 bc 81 3d
       0.16724433 -0.11689341 -0.13097885 0.06334704
000040 57 55 92 bd 0e 5f 17 be b3 80 23 3e 3a a8 22 3e
       -0.071451835 -0.14782354 0.15967064 0.15884486
000050 aa f8 2b be e8 d6 3e 3e 56 28 c4 3c bf 55 2a 3e
       -0.16794077 0.18636668 0.023945015 0.16634272
000060 11 e9 0c 3e 86 54 84 be 48 fb b8 3d 28 89 86 bc
       0.13760783 -0.25845736 0.09032303 -0.016422823
000070 f5 9e 41 3e eb 80 c7 3d 53 49 06 be 33 4c 63 3d
       0.18908294 0.09741386 -0.13113908 0.05549259
000080 41 77 53 be 7d 79 40 3e f1 b2 25 be c0 69 5d 3c
       -0.2065096 0.18796344 -0.16181542 0.013513982
000090 02 ad 11 3e 96 87 36 be 24 73 1d be 01 9e b7 bd
       0.14226153 -0.1782516 -0.15375954 -0.08965684
0000a0 92 24 47 3e 6c d9 3f be f6 ae fd 3d 6e 4a 52 3d
       0.19447544 -0.18735284 0.12386887 0.051340513
0000b0 9b ba 25 3e 59 4b 02 be 31 aa 14 3d 24 99 fa 3d
       0.16184466 -0.12724055 0.03629512 0.122362405
0000c0 ff 8e bc 3d 32 a1 11 bc 87 36 54 be 5e 89 59 bb
       0.09206962 -0.00888853 -0.20723926 -0.003319345
0000d0 ca 15 e9 bc 88 bc db bd 42 0a 3a 3e 1f 92 87 bd
       -0.028452773 -0.10729319 0.18167976 -0.06619667
0000e0 78 f8 3e 3e 1e 3d 2d 3e ee 3d a0 3d b7 40 1c be
       0.18649471 0.16917846 0.07824312 -0.15259062
0000f0 0e 31 4b bd ba d8 ba 3d 38 68 2a be c4 56 16 3c
       -0.04960733 0.091233686 -0.16641319 0.00917596
000100 6c 96 22 3e 4e c3 4c bd 37 65 22 3d 02 29 e8 3d
       0.15877694 -0.049990945 0.039647307 0.113359466
000110 69 f2 28 3e 3f 76 48 be 06 cf b8 3d ec 3f 34 be
       0.16498722 -0.19576357 0.090238616 -0.1760251
000120 ff ef 1c 3e 7f 21 1c be 06 e0 2e 3c 39 bf be 3d
       0.15325926 -0.15247153 0.010673529 0.093138166
000130 47 6d 9f 3d 14 09 95 bd 16 87 01 3e 1a 2d 3d be
       0.07784515 -0.07277122 0.12649187 -0.18474236
000140 41 7d c8 3d 3f 81 31 3e 0c 27 c8 bd 2a 24 ac 3d
       0.09789515 0.1733446 -0.097730726 0.08405335
000150 de 4e b5 bb dc 5b 07 bd 89 73 43 3e 89 3a ab bb
       -0.0055330833 -0.03304659 0.19087042 -0.005225484
000160 6b 8a a0 bd ec e4 a2 bc df 6f 25 be 05 a2 f7 3c
       -0.07838901 -0.01988455 -0.16155957 0.030228624
000170 13 e2 16 3e 49 2f 1a 3e 67 2d 7d bd f7 53 17 be
       0.14734678 0.150571 -0.061810877 -0.14778124
000180 a5 c8 69 be c0 8b 31 3e ca c8 8c bd 91 01 98 bd
       -0.22830446 0.17338467 -0.06874235 -0.07422174
000190 89 63 ed bd 96 b7 e4 bd 97 01 1b 3e 38 94 c7 3d
       -0.115912504 -0.11167829 0.15137325 0.09745067
0001a0 20 c7 11 3e f4 cf 41 3e 32 c9 07 3e 47 8d 0c be
       0.14236116 0.18926984 0.13260344 -0.13725768
0001b0 17 23 fa bd 7b 50 4b 3e 42 cd 24 3e 0d 1a 1f be
       -0.12213724 0.1985492 0.16093925 -0.15537281
0001c0 8d ac 16 be 3c 3f ab bc 88 eb 5a be f2 7f c3 bc
       -0.1471426 -0.020904176 -0.2137891 -0.02386472
0001d0 9e 01 b5 3d c4 4f 2c be fb 97 1e 3e 28 00 71 be
       0.08838199 -0.16827303 0.15487663 -0.23535216
0001e0 c9 ba 27 3e d8 66 1d 3e b2 b5 d8 bd 3e e9 19 3e
       0.16379847 0.15371263 -0.10581531 0.15030381
0001f0 d4 d4 85 bd 93 67 0f be d3 73 34 3e 1c 5d 89 3c
       -0.06534734 -0.14004354 0.17622308 0.01676803

std.constant3 f4 [16, 3, 3, 3]
000000 ce e9 62 3d 68 8e 29 bd fe 89 07 be 3b 9d b6 3c
       0.055398755 -0.041395575 -0.13236234 0.02229177
000010 e4 3c 52 3d 6e 7e c9 bc 94 bf f0 bd 7d e2 ba bc
       0.0513276 -0.02459642 -0.11755291 -0.022813076
000020 94 ec 2a be 51 23 ec 3d fe 14 07 3d 70 7e 33 be
       -0.1669181 0.115301736 0.032979004 -0.17528701
000030 a5 cd 01 be e9 11 c0 3c 77 01 2a 3d 9f e3 d9 bd
       -0.12676103 0.02344604 0.041505303 -0.106391184
000040 45 9a 7e 3d 16 41 37 bd e2 b4 d5 bd dd c2 34 bd
       0.06215884 -0.044739805 -0.10434891 -0.04413115
000050 a2 8c 41 3e 63 f6 87 bc 94 a1 db bd 6e d7 c0 bd
       0.18901303 -0.016596979 -0.10724178 -0.0941609
000060 27 23 b5 3d 67 ea d6 bd 72 20 d2 3c c1 ad 11 3e
       0.088445954 -0.104939274 0.025650237 0.14226438
000070 b8 30 70 3b 76 5b 0b be de f5 df 3d 08 31 2d be
       0.0036650132 -0.13609108 0.10935567 -0.16913235
000080 71 dc 64 bc 37 59 b0 3d e2 19 17 be e5 41 6f 3d
       -0.013968573 0.086107664 -0.14755967 0.05841245
000090 87 72 45 3e 91 60 24 bd 14 95 19 bb 94 98 30 bd
       0.1928197 -0.040131155 -0.0023434805 -0.04311426
0000a0 78 2a 06 be 07 48 11 be eb 70 c1 3c 1e 8b 2e be
       -0.13102138 -0.14187633 0.023613414 -0.17045256
0000b0 36 2e e6 3b 73 c2 3e 3d 17 10 25 be b0 09 10 3d
       0.0070245517 0.04657216 -0.16119419 0.03516549
0000c0 d7 04 06 bc 0c c4 85 bd 0f ca 41 bd 97 62 94 3d
       -0.008179865 -0.065315336 -0.04731184 0.07245367
0000d0 53 a9 ca 3d 67 ed a0 3d 7a 0c 7c bd 83 1c 1a 3e
       0.09895577 0.07857781 -0.061535336 0.15049939
0000e0 f6 cd e7 bd ce ea 9b 39 71 a2 b6 3d 04 7b 07 be
       -0.11318581 0.00029738847 0.08917702 -0.1323052
0000f0 7b f5 13 3e 0b 93 34 bb 27 2f 49 be 34 07 03 3e
       0.14449112 -0.0027553465 -0.19646893 0.12795717
000100 1f 7a d5 bc 2b 09 2d 3e f5 a0 10 3e b7 e8 b8 3c
       -0.026059208 0.16898029 0.141239 0.022571905
000110 bf 2e 47 3d 3c 34 ab 3d 9f 4e 3f be af 47 16 be
       0.048628565 0.08359572 -0.18682335 -0.14675783
000120 84 b1 b1 3c 06 2c 9b 3d 6b 0d eb bd 9d 5e ca 3c
       0.021691091 0.07576756 -0.11477169 0.024703318
000130 24 40 2a 3d 76 8c 2a 3d 84 8a 03 3e 52 18 3d 3e
       0.041565076 0.04163786 0.12845808 0.18466309
000140 8e a9 e9 3d ac 91 33 be e3 30 fe bd fb bc fc bd
       0.11409293 -0.17536038 -0.12411668 -0.12340733
000150 03 91 7c 3d fc 72 13 3b 4b 3b 2a 3e c3 0d f5 3c
       0.06166173 0.0022498956 0.16624181 0.029913789
000160 35 0a 10 3e c2 bd a2 3d 78 13 5d 3d 89 d8 12 3e
       0.14066394 0.0794635 0.053973645 0.14340414
000170 87 63 15 3e a6 dc 9b bd 80 df 2a be 5a d3 41 3e
       0.14588748 -0.07610445 -0.16686821 0.1892828
000180 ce 66 16 be bb 94 fb 3d 53 57 98 bd 99 f4 81 3d
       -0.14687654 0.122842275 -0.07438531 0.063454814
000190 59 5c 19 be b0 49 31 3e 05 5a 52 bd c3 91 af bc
       -0.14976634 0.17313266 -0.05135538 -0.02143181
0001a0 70 a8 2e 3d b3 e9 42 be 62 58 55 bd 5d b0 b4 3d
       0.042641103 -0.19034462 -0.05208624 0.08822701
0001b0 08 f3 86 bd 1e 21 29 be 4d 02 5c 3c de 1a a7 bd
       -0.06589323 -0.1651654 0.013428283 -0.081594214
0001c0 6b 4e 1d bd a8 50 60 bd 0f fb 11 3e 20 d1 0c be
       -0.038404863 -0.05476442 0.14255928 -0.1375165
0001d0 39 fb 38 3d fe a7 2b 3e 41 78 d5 3b 53 86 fb 3d
       0.04516146 0.16763303 0.0065145795 0.1228148
0001e0 7b 7a 33 3d 24 c6 29 be 07 d4 17 3e 21 3a ed 3d
       0.04381798 -0.16579491 0.14826976 0.11583353
0001f0 41 33 bb bd 5f 0a 96 bc 04 fa 12 3e ee b7 79 bd
       -0.09140635 -0.018315492 0.14353186 -0.060966425
000200 b0 c5 c1 bd 9f 2b 2e 3e d2 ae a9 bd 0c a5 02 3e
       -0.09461534 0.17008828 -0.082852975 0.12758273
000210 81 a5 29 be ad 6e 2a 3d ab f5 30 3e cc d6 c3 3d
       -0.16567041 0.041609455 0.17281215 0.09562454
000220 ca 7e 84 3c ed 16 78 bc f6 05 9f bd 6b 2c 26 3e
       0.016173739 -0.015142185 -0.07764809 0.16227882
000230 ec 22 41 be 13 2a d2 bd 65 ff d5 3d 9c b3 3a be
       -0.18860978 -0.10261931 0.10449103 -0.18232578
000240 75 1e 24 be f4 3c 3e be 64 4c ee 3c 64 47 23 3d
       -0.16027243 -0.1857794 0.02908916 0.039863005
000250 28 bb ad 3d a7 f2 07 3e 07 0a 35 3e cb ab 57 3d
       0.08482963 0.13276158 0.17679606 0.05265407
000260 ad 79 10 be 17 d0 88 3d 6c 7a 17 3c f7 4a 83 bd
       -0.14108916 0.06680315 0.009245496 -0.06410783
000270 24 b2 ff 3d 92 1a ca 3d b0 ef 9a 3d 26 2c 21 bd
       0.124851495 0.09868349 0.07565248 -0.039348744
000280 fe f2 be bd d7 8f 88 3d 6e 62 91 3d ef ef 15 bd
       -0.09323691 0.0666806 0.07098852 -0.03660577
000290 61 d2 af bd 59 8c b8 bd 9e fe 11 3d a4 9b 44 3e
       -0.085850485 -0.09011144 0.035643212 0.19199997
0002a0 85 42 1c 3e f4 24 eb 3d 07 30 1a 3e 67 cd 3f 3c
       0.1525975 0.114816576 0.15057383 0.011706687
0002b0 88 58 cb bc 4e 7f 45 3d d8 2e 06 be c8 2c 15 be
       -0.024822488 0.04821711 -0.13103807 -0.14567864
0002c0 53 3d 32 be 71 a4 2f bb d9 ee c9 bd a5 ad 26 be
       -0.17406206 -0.0026800896 -0.0986001 -0.16277178
0002d0 76 33 b7 3d 0f a7 d8 3a c9 f5 3b 3e 13 f5 24 3e
       0.08945362 0.001652928 0.18355478 0.16109113
0002e0 d0 0c 5a 3d 19 6e db bd 6b d6 20 be 23 08 bc bd
       0.053234875 -0.10714359 -0.15706794 -0.091812395
0002f0 e6 d4 93 3b 4d 2f 81 bb 58 85 3b 3d 5b f9 ca bd
       0.0045114635 -0.0039424063 0.045781463 -0.09910842
000300 66 0f 2f 3e 84 21 35 be f7 fb 0d bd a5 11 81 bd
       0.17095718 -0.17688566 -0.03466412 -0.063021936
000310 c7 cb 89 3d 2d f0 30 be 2f ec 02 3e 90 9b 99 3d
       0.067283206 -0.1727912 0.1278541 0.07500374
000320 9a df 2f bd b7 e1 91 3d c6 c4 64 bd 9b 56 22 be
       -0.042937852 0.0712313 -0.05585172 -0.1585335
000330 44 cd 07 be 02 3b 1f 3e 10 2e 94 3d 1a ad 28 3e
       -0.13261896 0.15549853 0.07235348 0.16472283
000340 bb 18 01 be e5 f3 90 3d be ea f4 3d e6 e2 e6 3d
       -0.1260709 0.07077769 0.11958836 0.11273746
000350 19 c1 d1 bd a0 3b 38 3e f7 ce bc bd 46 b3 d2 3d
       -0.102419086 0.17991495 -0.09219163 0.102881
000360 1c de 2f 3e 79 f1 9f 3c 11 5a 83 bd 9d f0 38 be
       0.17174572 0.019524323 -0.06413663 -0.18060537
000370 c3 4d a2 3d 3b 9c 84 bd 99 11 1e 3c 66 6d 04 be
       0.07924988 -0.06475111 0.00964775 -0.12932357
000380 61 25 2b be ee e8 3a 3e de 83 31 3e f5 90 03 be
       -0.16713478 0.18252918 0.1733546 -0.12848265
000390 ca 7d 0e be 49 81 2e bd 93 ed 89 bd c8 d0 bc 3d
       -0.13915172 -0.042603765 -0.06734767 0.09219509
0003a0 95 9e 74 bd fb fd c0 3d 17 8e 0e be bc f9 1e be
       -0.059721548 0.09423443 -0.1392139 -0.15524954
0003b0 39 28 b5 3d 03 8f 05 3e 65 c9 66 3c e1 30 d5 bd
       0.088455625 0.13042836 0.014086102 -0.104097135
0003c0 27 3b 25 3e 0b cd d3 3c ca 64 04 3e 0a b3 80 bc
       0.16135846 0.025854608 0.12929073 -0.015710372
0003d0 b8 9d 1c 3e 55 b1 8f 3c 6f f5 2f be 49 92 0b 3e
       0.1529454 0.017540613 -0.17183469 0.13630022
0003e0 37 9c 0c bc d1 e8 fb bd af 91 30 3e b4 f4 2b bd
       -0.008582166 -0.123002656 0.17243074 -0.041981414
0003f0 5c 78 ac 3d 5f dc b1 3d 24 e8 97 bd f3 0f 0d 3d
       0.08421394 0.086846106 -0.07417324 0.03443904

std.constant4 f4 [32, 3, 3, 16]
000000 f2 30 49 3b 13 02 fd 3d c3 e7 80 bd 9d 35 60 bd
       0.003069934 0.12353911 -0.06294205 -0.05473863
000010 c3 51 f0 bb 70 ce 77 3d b1 f8 ae 3d 9b 79 a0 3c
       -0.0073339655 0.06049961 0.08543528 0.019589236
000020 14 e9 af 3d e3 99 98 bd 48 25 ab 3d 1f 6c bb 3d
       0.08589378 -0.074512266 0.0835672 0.09151482
000030 d2 e3 82 bd de 20 8f 3d 55 0a 43 3c 82 2d 44 bd
       -0.063911095 0.06988691 0.011904319 -0.047894962
000040 50 99 78 3d ea a4 9d 3c d9 af 8c bd 73 af c0 bd
       0.060693085 0.019243676 -0.06869478 -0.09408464
000050 a4 e0 0c 3e c5 df 23 bd 94 31 54 3d 14 6c f0 bc
       0.13757569 -0.040008325 0.051805094 -0.02934841
000060 ec f8 3e 3d a6 02 39 bd d2 02 f6 3c d7 da 0f bd
       0.04662411 -0.04516854 0.030030642 -0.03512081
000070 e0 95 9c bd 2d 1a bc bd ac 35 69 bd 77 b9 78 bc
       -0.07645774 -0.0918468 -0.05693595 -0.015180937
000080 82 da cd 3d 5e fa 51 bc f2 8a 19 bd 84 ef b2 3d
       0.10051443 -0.01281604 -0.037486024 0.0873709
000090 e1 8a 91 3d 04 2a 95 3d 7b 8a 46 3d 21 96 f0 3d
       0.07106567 0.072834045 0.04847191 0.11747385
0000a0 c2 0f 00 3d e4 26 c2 bd 99 1e da 3d 2d de e6 3d
       0.031265028 -0.09480074 0.10650367 0.112728454
0000b0 4f f3 d5 3c 59 02 d0 3c d7 70 9f bd 7a 89 3e 3d
       0.026116995 0.025391744 -0.07785194 0.046517827
0000c0 0a 52 9b bd c1 38 a8 3d 7e 88 41 3c af 2f bf 3c
       -0.07584007 0.0821395 0.011812327 0.023338167
0000d0 59 b9 dd 3c 73 01 9d 3d 66 c6 a1 3d 04 03 cb 3c
       0.02706592 0.07666292 0.078991696 0.024781711
0000e0 bd 5d 49 bd 6a e6 af 3d 85 50 2d 3d 2e 8a 42 bd
       -0.04916166 0.0858887 0.042313118 -0.04749506
0000f0 1a 57 e1 bd e9 b8 8e 3d d5 05 ac 3c 69 97 a5 bd
       -0.110029414 0.069688626 0.020998875 -0.0808552
000100 b7 7c b6 3b 31 cd 8b bd a3 fb 2f 3c 94 28 c1 bc
       0.0055690664 -0.068262465 0.010741147 -0.02357892
000110 fa 7b 03 3e b1 06 54 bd 1d 0f 90 bd c0 bd 57 39
       0.12840262 -0.051764194 -0.07034133 0.00020574685
000120 91 91 db 3d b4 37 2d 3d f8 45 db bd 0e 43 3e 3c
       0.10721124 0.04228945 -0.10706705 0.011612667
000130 f6 12 da bd 6f b3 ea bb 72 95 39 3d e2 0b 99 bd
       -0.10648148 -0.0071625034 0.045308538 -0.074729696
000140 de e5 89 3c d9 a6 db 3d 41 af 64 3d 6e 7f d9 3d
       0.016833242 0.10725183 0.055831198 0.106200084
000150 4e 1b 2b 3d a2 8c c6 bd 67 3d b2 3d 4e 28 38 3a
       0.041774087 -0.09694792 0.08703118 0.0007025049
000160 28 62 19 3c 5e f2 84 bc 1f ff ce bc bf 65 98 3d
       0.009361781 -0.01622885 -0.025268136 0.074412815
000170 8a 55 5e bb ca 4f a7 bd c4 cf 30 bd b8 56 f8 bc
       -0.0033925497 -0.081695154 -0.04316689 -0.030314788
000180 8b ac 43 bd ae 06 ae bd 8a ac 94 3c b4 23 5a 3d
       -0.04777197 -0.08497368 0.01814868 0.053256705
000190 0d 33 8a bd e1 26 03 be da ef 69 3d b9 5a 46 3d
       -0.067480184 -0.128078 0.057113506 0.048426364
0001a0 a4 60 e1 3d f8 31 fb bd dc e6 ac 3d 7c 08 be 3d
       0.11004761 -0.1226539 0.084424704 0.09278962
0001b0 4e e1 5e 3c 9a f3 bc 3d 70 99 fc 3c 0b ed 09 3d
       0.0136035215 0.09226151 0.030834883 0.033673327
0001c0 b4 aa 15 3d be 88 ed 3d 93 35 16 3d 87 0a 73 3d
       0.03653975 0.11598347 0.036672186 0.05933621
0001d0 7b a9 b5 bb e0 fe bb 3d 27 56 26 3e c4 fc 46 3c
       -0.0055438853 0.09179473 0.16243802 0.012145225
0001e0 aa 96 e5 3d bb 43 23 3d f2 05 76 bd 85 a8 8c 3d
       0.112103775 0.039859515 -0.060064264 0.0686808
0001f0 b4 b9 da 3b b5 0e 1a bd fe 7a b9 bd aa 10 f0 3b
       0.0066749696 -0.037611682 -0.09056662 0.0073262053
000200 d9 59 db 3c 65 16 99 bc 3e e0 ac 3b e5 d4 be bd
       0.026776241 -0.018687436 0.005275755 -0.0931795
000210 41 e9 84 3d 05 88 4a bd 6b 7d 9c 3b a2 c5 a5 bd
       0.06489802 -0.049446125 0.004775693 -0.08094336
000220 d9 de 8a bb 81 d5 cc bd 51 2f 7f 3d 98 2c a1 3d
       -0.0042379913 -0.1000166 0.062300984 0.07869834
000230 1a ec ab bb 07 be 0e 3e dd 38 f2 bd bb 3f ee bc
       -0.0052466514 0.13939677 -0.11827252 -0.029083123
000240 48 6d 39 bd ce f3 c3 bd f4 df 0a be 76 80 da 3d
       -0.045270234 -0.095679864 -0.13561994 0.10669033
000250 a9 34 c2 bc 32 b1 9b bd 6d 48 ce bd 1c b9 f4 bd
       -0.023706751 -0.07602157 -0.10072408 -0.11949369
000260 03 25 73 3d da e8 b5 bd 05 9a 76 3d 32 f3 af bd
       0.05936147 -0.088823035 0.06020548 -0.08591308
000270 8b 30 a6 3c 24 8b d1 3d 6a ff 3e bd 26 70 16 3d
       0.020286819 0.10231617 -0.0466303 0.036728047
000280 78 8d a9 bd fd 11 d0 3d a6 51 07 be 68 06 05 3d
       -0.08278936 0.10159681 -0.1321474 0.032476813
000290 e1 43 e7 bb 13 b4 17 bd 96 eb d9 bd 5d ca bc bd
       -0.0070576523 -0.037036967 -0.106406376 -0.09218285
0002a0 6b 72 86 3d 86 81 94 3d f9 13 7e bd 17 23 a0 bd
       0.06564792 0.07251267 -0.062030766 -0.07819193
0002b0 b4 b6 c2 bc 0c 59 8b bc 0f e0 d2 bd 31 ba 0a 3d
       -0.02376876 -0.017010234 -0.10296642 0.033868972
0002c0 05 5a d4 3d a3 f0 b2 3c 22 2d 94 bc 1f 5f ec 3d
       0.10368732 0.02184326 -0.018087927 0.115415804
0002d0 d6 ca af bd b3 ee 90 3d b4 3d 51 bd 44 d4 56 bd
       -0.0858361 0.07076778 -0.051084235 -0.052448526
0002e0 6a fb eb 3d 24 db 95 3c 7b 96 ba 3c 3f 5f 6d 3d
       0.11522563 0.018292971 0.022776833 0.057952162
0002f0 93 af af 3b c6 31 8e 3d ae 7c 35 3d 0b 61 46 bd
       0.0053615062 0.06943087 0.044308357 -0.04843239
000300 59 0c dc bd 0c d7 d7 3d 6e bf 0c 3d 36 e3 5a bd
       -0.10744543 0.10539064 0.03436225 -0.05343934
000310 9b e1 41 bd 9b 2f 9d 3d f9 9d a7 bd 64 74 9b 3c
       -0.047334295 0.07675096 -0.08184428 0.018976398
000320 52 5d 84 bd c0 52 aa bc 49 ef b1 3d 98 b1 85 bd
       -0.06463112 -0.020791411 0.08688218 -0.06528014
000330 b2 af 89 bd 78 71 1f 3d e6 ee 82 bd d6 3a 3c 3c
       -0.06722964 0.03892657 -0.063932225 0.011488637
000340 7a ca c9 bd 34 61 96 3d 7c f6 bf 3d d5 91 e9 bd
       -0.098530725 0.07342759 0.09373185 -0.114047684
000350 28 a0 3d bd 67 56 20 bc 18 d4 13 bb 98 76 79 3d
       -0.046295315 -0.009786225 -0.0022556838 0.060904115
000360 26 32 a1 bc ad 7f 31 bd 93 fa 9e bd b0 6a d0 3c
       -0.019677233 -0.04333465 -0.07762637 0.025441498
000370 39 5e 00 3d 1a 25 06 3e f5 aa c8 3c 16 ef 90 bd
       0.031339858 0.1310009 0.024495581 -0.07076852
000380 6e ab a2 ba 4f 2b 8b 3d 0c 65 ba 3d 8b 13 e4 3d
       -0.0012410709 0.0679537 0.091013044 0.1113654
000390 a6 e6 0c 3d 3d 3b 72 3d 96 a8 72 3d 2a d6 9e 3d
       0.03439965 0.059138525 0.059242807 0.07755692
0003a0 1d 10 a9 bc 8f da 6c 3b c5 e6 0b bd af f0 94 3d
       -0.020637566 0.0036141013 -0.034155626 0.07272469
0003b0 63 ea be bd e7 0b ed bc 7e 45 ae bd 71 9b 80 bb
       -0.093220495 -0.02893634 -0.08509348 -0.00392478
0003c0 79 e4 a7 3d 11 7a 98 3d c0 d8 11 bd 6c 67 e8 3c
       0.081978746 0.07445157 -0.0356071 0.028369628
0003d0 e6 80 8b bd d0 32 1e bd e3 69 9d 3d 39 6d 26 bd
       -0.06811695 -0.038622677 0.07686212 -0.040631507
0003e0 f3 2f d7 bd d3 20 7f bd 70 de 06 b9 fa 28 f9 3c
       -0.105071925 -0.062287163 -0.000128621 0.030415047
0003f0 10 ff 9a 3d 87 35 ad ba d6 2a a0 3d 02 b1 94 bc
       0.075681806 -0.0013214805 0.0782067 -0.01815081

std.constant5 f4 [32, 3, 3, 32]
000000 59 c0 b8 3d ab cf f7 3c 18 3c 76 bd 16 f8 9f b9
       0.090210624 0.030250391 -0.060115904 -0.00030511682
000010 bf b3 a5 bd 74 be 47 bd 66 02 3b 3c 91 4d a3 bd
       -0.080909245 -0.048765615 0.011414146 -0.07973779
000020 4a f2 1d bd 20 2e e5 3c 9f 31 17 3c 28 38 c7 3d
       -0.038561143 0.027976096 0.009228139 0.09727508
000030 3e a9 a3 bd a8 41 f5 38 a9 2c 89 3d d6 6e ad bd
       -0.07991265 0.0001169474 0.066979714 -0.08468406
000040 9a 98 8c 3d 03 5c a9 bc 5c 13 a5 3d 4e b3 c3 3c
       0.06865044 -0.020673757 0.08060333 0.02388921
000050 d7 d8 b5 bd b4 18 5b 3d e9 f3 b3 bd 68 90 7c bd
       -0.088792495 0.053490356 -0.087867565 -0.061661154
000060 9a 64 bb 3c 23 d5 aa 3d dc fa 4c bd 00 16 bf bd
       0.022875119 0.08341434 -0.050043926 -0.09330368
000070 3e d3 68 bd 49 97 7a bd 58 9e 23 bc c9 13 21 3d
       -0.05684208 -0.061179433 -0.009986483 0.03932551
000080 0e bb 0a bd 6d a0 a8 bc 40 12 dd bd ae 04 d7 3c
       -0.033869796 -0.02058431 -0.107944965 0.026247349
000090 58 f6 09 3d f3 51 a8 3c 80 8c 82 3b e1 b3 07 bd
       0.033682197 0.020546889 0.003984034 -0.03313053
0000a0 2f 46 0f 3d 03 ae 3d 3d d3 9e ac bd da a5 87 bd
       0.03497904 0.04630853 -0.08428731 -0.066234306
0000b0 67 ac aa 3c 6f 52 5f bd 6e b3 b9 bd f4 82 db bd
       0.020834161 -0.054521974 -0.090674266 -0.10718337
0000c0 b3 0c 00 3d 3f b3 b8 3d e9 54 95 bc 56 30 a8 bd
       0.03126211 0.090185635 -0.018228965 -0.08212344
0000d0 6c 00 08 3d 0f b4 ae bd 48 65 b2 3d 27 8c 3a 3c
       0.033203527 -0.08530437 0.08710724 0.011385954
0000e0 54 9e 45 3d 1e 3a 9a 3d 02 1d 5b bb 55 30 8b 3d
       0.048246697 0.07530616 -0.0033434038 0.06796328
0000f0 be 9c 19 bd 72 41 66 3d 76 0c 5f bd d3 79 a5 3d
       -0.037502997 0.056214757 -0.054455243 0.08079877
000100 40 12 9b 3d dc 64 c4 3d 7a ce 50 bd 06 f4 8d bd
       0.0757184 0.0958955 -0.05097816 -0.069313094
000110 d3 af e3 bb cb b9 89 bc 73 d3 fa 3c 49 02 9a 3c
       -0.00694845 -0.016812226 0.030618405 0.018799918
000120 41 23 39 3d 4a c4 83 bd f0 14 02 bd c6 5a 78 3d
       0.045199636 -0.064339235 -0.03175825 0.060633443
000130 75 8b a5 bc 80 7a 46 3c ec 49 71 bd c2 7e 5c 3c
       -0.0202081 0.012114167 -0.058908388 0.013457956
000140 79 67 8f bd 00 e4 af ba 05 08 06 bd c6 5e bb 3d
       -0.07002158 -0.001341939 -0.03272249 0.09148936
000150 36 88 c2 3d b3 f3 80 bd 3b 2f e3 3d fa 02 3e 3d
       0.094986364 -0.06296482 0.11092993 0.046389557
000160 da 30 a1 3c aa 72 f5 3c e2 2c 7e bd 91 90 86 3d
       0.019676615 0.029961903 -0.062054522 0.065705426
000170 cb 7d d1 bc 88 1c 76 bb b9 3e 9c bd ce 4d d4 3d
       -0.025572678 -0.0037553627 -0.07629151 0.103664026
000180 da 62 c7 3c 07 a4 ab bd 49 60 9f 3d 6c fb d6 3b
       0.024339128 -0.08380895 0.07782037 0.0065607335
000190 44 6f 8b 3d ec 83 60 bd 5c 93 ca bd c1 70 c2 3d
       0.068083316 -0.05481331 -0.09891388 0.09494162
0001a0 d9 d7 81 bc a6 27 c7 3d ba 53 46 bc f1 c2 97 bc
       -0.015849994 0.09724359 -0.012104923 -0.018525572
0001b0 6b 86 56 3d fe 90 6e 3d c5 01 08 bd 8a 09 40 3d
       0.052374285 0.058243744 -0.033204813 0.046884097
0001c0 05 9c 16 bc ad 97 30 bc 75 d5 e0 3b 06 86 a3 bd
       -0.009192471 -0.01077835 0.0068613836 -0.07984547
0001d0 eb e5 24 3c be b8 db 3c b5 d9 02 bc 8b b9 ce bd
       0.010064582 0.02682149 -0.007986476 -0.10093983
0001e0 0d 60 d1 bd 62 de 90 bd 3f a2 af bd 58 ee 81 bd
       -0.10223398 -0.07073666 -0.08575868 -0.063442886
0001f0 b0 05 35 3d 7b cb 6f bd a9 10 e0 3b 44 61 5b 3d
       0.044194877 -0.058543663 0.0068379235 0.053559557
000200 ad 80 a8 bc a1 c7 9e 3d b0 ee 9f bc e4 0e 6e bd
       -0.02056917 0.0775292 -0.019522995 -0.05811967
000210 3e 67 da bc 15 b6 ae 3c e9 dc 95 bd 53 97 ef 3d
       -0.026660558 0.021327058 -0.07317526 0.11698785
000220 17 a4 aa bd 88 0a c1 bd 87 26 81 3d fa 64 d9 bd
       -0.08332079 -0.09425837 0.06306177 -0.10614963
000230 75 65 38 3d 5e bd 1b 3d f9 f6 41 bd 15 9c 4a 3c
       0.045018632 0.03802239 -0.047354672 0.012366314
000240 4c e7 75 3d 7c 6f ce bd 82 25 97 bd c1 1d a6 3c
       0.060035035 -0.10079858 -0.07380201 0.02027786
000250 05 ec b9 bc 87 5a 4e bd 98 81 04 3d 4e 7c 76 bc
       -0.02269555 -0.050379302 0.032350153 -0.015044285
000260 cf aa 63 3c f0 78 5e 3d 46 2a 91 3d 5a 6d 31 3d
       0.013895704 0.054314554 0.07088141 0.043317176
000270 04 44 92 3d d1 fa 99 bd af 9b df bd 7d 5d d0 3c
       0.07141879 -0.075185426 -0.10918366 0.025435204
000280 67 aa ad 3d 1f 36 eb 3d fe c7 8d bd b0 e0 b0 bd
       0.08479767 0.11484932 -0.06922911 -0.08636606
000290 29 00 84 3d ba 86 b7 3d c0 cf 6e bd 50 2e b9 3d
       0.06445343 0.08961244 -0.058303595 0.090420365
0002a0 27 eb c8 3d 68 fb a1 3d 1f 12 ee bc cd 4a a9 3d
       0.09810477 0.0790928 -0.029061375 0.0826622
0002b0 10 f4 99 3d 90 4a 5c bd 29 df 46 3d 12 42 82 bd
       0.07517254 -0.053782046 0.048552666 -0.06360258
0002c0 09 7c 34 bc e7 c7 95 3c 0a 50 10 3d 53 88 7b bd
       -0.0110159 0.018283797 0.03523258 -0.061409306
0002d0 f4 7f 61 bd 29 72 c8 3d 72 7b 1b 3c b7 fd 4d 3b
       -0.055053666 0.09787399 0.009489881 0.0031431743
0002e0 7d eb 66 3d 4d 80 dc bc 9c 17 9d bd 65 45 3d bc
       0.056376923 -0.026916647 -0.07670519 -0.0115521895
0002f0 f4 6d b0 3d bb 84 af 3d 5a e3 7f 3d f2 37 5d 3d
       0.08614722 0.08570238 0.06247268 0.05400843
000300 d2 5b 91 3d dc 70 0e bd 00 18 33 bd 43 3b 6b 3d
       0.070975915 -0.0347756 -0.04372406 0.057429563
000310 f3 30 13 3d 9a b7 b7 bd 62 14 62 bd 57 b3 d4 3d
       0.035935353 -0.08970566 -0.05519522 0.10385769
000320 69 3c c2 3d 0a c3 91 bc 63 16 21 3c 8e 98 a5 bd
       0.094841786 -0.017793197 0.009831998 -0.08085738
000330 4f 35 04 bd c4 5e 07 3d 6c 1f 7f 3b ed 4e 32 ba
       -0.0322774 0.03304936 0.003892864 -0.0006801922
000340 83 04 d1 3c 8f d9 c1 3c b7 f5 90 bd bc 02 98 3c
       0.025514847 0.02366331 -0.070781164 0.018555991
000350 cf da bd bd 9c 2b 9c 3c d6 6e 80 3d cf da 44 bd
       -0.0927025 0.019063763 0.0627114 -0.048060235
000360 4f b4 d6 bd 3e d4 b9 bc ac b2 6e 3d 51 1d 14 bd
       -0.1048361 -0.022684213 0.058275864 -0.03616077
000370 33 52 da 3d 70 7b 49 bd 5a c2 0c bd 4d fc 0c 3d
       0.106602095 -0.049189985 -0.034365036 0.0344203
000380 9f 9e bf bd 43 68 8e bd 21 5f 72 3d 56 61 3f bd
       -0.093564264 -0.0695348 0.059172753 -0.046723686
000390 ee 78 46 bd cf 25 b7 bd 3f 59 99 3d fd da 03 3e
       -0.04845517 -0.08942758 0.074877255 0.12876506
0003a0 d4 38 54 bd e3 5a bb 3d b7 48 c8 3b 37 7a c8 3c
       -0.051812008 0.09148195 0.006112184 0.02447234
0003b0 58 49 a7 bd a9 c0 c1 bd 44 a6 8d 3d 2a 88 0d bd
       -0.08168286 -0.09460575 0.06916478 -0.034553684
0003c0 28 bf 1e bb 1d d3 c3 3c d1 f9 d3 bd 69 7b 1a bb
       -0.0024222825 0.023904378 -0.10350383 -0.0023572093
0003d0 23 d8 27 bd 81 29 3a bd 26 db 4d 3d 5a df 95 3d
       -0.04097761 -0.045449737 0.050257824 0.073179916
0003e0 f4 5a 83 3d 87 50 09 3d d8 ef 11 bd 7f 2e d2 bc
       0.06413832 0.033524062 -0.035629123 -0.025656937
0003f0 72 99 cc 3d 8f 4c 04 bd 7e 60 0d bd 6e ab af 3c
       0.09990205 -0.032299574 -0.03451585 0.021444049

std.constant6 f4 [32, 3, 3, 32]
000000 c2 a7 e0 3c 52 ef cd 3c 30 d4 a6 bd 1f a4 36 3d
       0.027423743 0.02513853 -0.0814594 0.04459011
000010 36 7c 4b bd 94 07 6c bc 7c ca 48 bd 32 f2 81 3d
       -0.049679004 -0.014406104 -0.04902123 0.06345023
000020 66 df b3 bd 2c 35 df 3c 15 98 b0 3c ce 6e 26 3a
       -0.08782844 0.027247034 0.021556893 0.00063489086
000030 8f 67 8c bd d0 2f 38 3d 0a 71 3a 3d 98 a8 23 3d
       -0.0685569 0.044967473 0.04551796 0.039955705
000040 56 7c 75 bd 49 60 07 3d 5c 11 94 bd af dc 06 3d
       -0.05993303 0.03305081 -0.072298735 0.032925304
000050 d4 d4 02 bd 94 de c1 bd 2f d5 49 3d be 60 ea bb
       -0.03194125 -0.094662815 0.049275573 -0.007152646
000060 16 b5 b5 bd 58 e6 81 bb a3 2c 06 3d 63 b0 91 3d
       -0.0887243 -0.0039642267 0.032757413 0.07113721
000070 fc ee 5f 3d 5b cf 3a bd 3c f8 88 bd ac 5a f0 3c
       0.054671273 -0.045607906 -0.06687972 0.02934011
000080 ab 08 b8 bd c0 21 9b 3b d0 20 d4 3d fc 66 56 3d
       -0.08986028 0.004734248 0.10357821 0.052344307
000090 2f 26 3a bb f3 97 26 bd 55 43 55 bd fa 4d 94 bc
       -0.0028404107 -0.040672254 -0.052066166 -0.018103588
0000a0 09 de 25 3d 24 47 aa bd 9a bb 0e 3d 76 c5 80 3c
       0.040494952 -0.0831435 0.03484688 0.015719157
0000b0 ae a1 42 3c 35 e2 12 bd 7c b8 a6 3d 47 5b bd 3c
       0.011879368 -0.03586026 0.08140656 0.023114813
0000c0 71 fc e0 3c e2 5a 90 bd ce c3 03 bd c7 7d 61 3b
       0.027464123 -0.070485845 -0.032169156 0.0034407245
0000d0 88 f6 96 bd ea e3 2b bd 1d bf 1e bc ea b9 36 bc
       -0.07371241 -0.041965403 -0.00968912 -0.011152724
0000e0 47 c9 aa 3d b1 a3 9d bd 66 cd d5 bd 30 de b0 bd
       0.08339172 -0.07697237 -0.10439567 -0.08636129
0000f0 fa e5 e4 3c 84 85 1a bd fe 5a 6e 3d b3 82 0d 3d
       0.027941693 -0.037724987 0.058192246 0.034548473
000100 81 5e 89 bd c7 2a a4 3d d5 5c 44 3d 85 9b 31 3c
       -0.06707478 0.08015972 0.047940094 0.010840301
000110 60 61 ab bd b4 f0 89 b9 6c 48 61 bc 04 ad 16 bd
       -0.08368182 -0.00026310014 -0.013750177 -0.036786094
000120 e3 a5 6a bc f1 bf 8d bd 7e cb fa 3c 08 68 02 3e
       -0.014321777 -0.069213755 0.03061461 0.12734997
000130 b1 e1 b1 bd 07 7e 83 bd a3 99 1e bd 6f f9 00 3d
       -0.08685625 -0.06420522 -0.03872074 0.03148788
000140 9f 30 a0 bc e2 23 a2 bd 87 94 43 bd 0e d0 93 bd
       -0.019554434 -0.07917 -0.04774907 -0.07217418
000150 22 93 09 3d da af 49 bc 32 39 14 bd 1f 12 a1 3d
       0.033587582 -0.012309993 -0.03618736 0.078647844
000160 8c 74 84 3d 20 e0 98 3c a1 14 c4 3d 70 f8 89 bd
       0.06467542 0.018661559 0.09574247 -0.06736839
000170 26 e4 63 3d db 16 ad 3d c2 c7 7c 3d 6d c3 6c bd
       0.0556375 0.08451625 0.06171394 -0.05780356
000180 cc 50 c6 3d 29 6d dd 3c 96 8b 6d bc 44 8d 8a bc
       0.096833795 0.02702959 -0.014498612 -0.016913064
000190 6f ad 71 bc 80 47 ca bd e7 22 97 3d b7 f6 84 bd
       -0.014750822 -0.09876919 0.07379704 -0.064923696
0001a0 5f fc db 3d be cd 7f bc b2 4c bd bd cf 40 18 bd
       0.10741495 -0.015613018 -0.09243144 -0.03717118
0001b0 c5 46 89 bd d1 ce ee bc 28 01 8e 3c 29 7e 95 bd
       -0.06702951 -0.029151352 0.017334536 -0.07299454
0001c0 e1 18 56 bc da 65 57 bd ff 8e c8 3d f5 60 36 bd
       -0.013067455 -0.052587368 0.09792899 -0.04452606
0001d0 0c 65 c2 3b 22 0b 64 bd 91 dc 9d 3d bc 38 50 bd
       0.005932456 -0.05567468 0.07708085 -0.050835356
0001e0 15 f0 82 bd 39 cf 2f bd 6e 2d a7 bc 24 8c 9a 3d
       -0.06393448 -0.042922232 -0.020407405 0.07546261
0001f0 e0 ba 90 3d ba 52 08 3d a6 95 ae bd f9 2b 11 bc
       0.070668936 0.03328202 -0.08524637 -0.008860582
000200 ed a6 15 3d 5f 1c dd 3d ec 4d 3b 3c 1b 08 b1 bd
       0.036536146 0.10796427 0.011432152 -0.08644124
000210 7b 72 5f bd 09 a5 a1 3d 48 c0 9c 3c 59 7a 58 3c
       -0.054552536 0.07892806 0.019134656 0.013212764
000220 d6 cc 3f 3d 2f 71 67 bd 6d fc 84 bd 33 0c cc bd
       0.046826206 -0.056504425 -0.06493459 -0.09963264
000230 76 54 55 bb 8b 0a 3e 3d 8e 55 5c 3d 77 f8 ad bd
       -0.0032551563 0.046396773 0.05379253 -0.084946565
000240 9a 55 9d 3d 43 f4 e2 bb 1a e7 24 bc 21 ac 69 3d
       0.07682343 -0.006926091 -0.0100648645 0.05704892
000250 46 7d 1a 3c e2 b0 8c bd 6b 10 78 3d 7d 6e b1 bd
       0.009429282 -0.06869675 0.060562532 -0.08663652
000260 04 ea 25 3d 80 ea db bc 59 17 0e bb 7c 69 c7 3d
       0.040506378 -0.026845217 -0.0021681397 0.097369164
000270 45 60 b9 3d 70 d4 0a bd 8c 8c 4c bb 01 28 91 bd
       0.09051565 -0.033894002 -0.0031211702 -0.07087708
000280 ac 48 16 3c 53 a7 8e bc d1 9e bc bc 24 46 c7 3d
       0.0091726 -0.01741377 -0.023024948 0.09730175
000290 1b d6 9d bb 5a 23 d6 3c 85 d1 79 bd 68 4b 94 3d
       -0.004816783 0.026139904 -0.06099083 0.07240945
0002a0 2e f4 ac 3d a0 f4 9c bd e3 79 a7 3d c3 b7 fe 3d
       0.08445011 -0.07663846 0.08177545 0.124373935
0002b0 08 4d b1 bd 80 ce a0 bd 74 62 47 3d 9a c7 f3 bc
       -0.08657271 -0.07851887 0.048677877 -0.029758263
0002c0 e7 17 d8 bc 6a ea 64 3c a6 65 59 bd 0c 62 0d 3d
       -0.026378585 0.013971904 -0.053075455 0.034517333
0002d0 be 94 13 3d 3d ec 91 bd 5a 8c ab bd 05 87 80 bb
       0.036030523 -0.07125137 -0.08376379 -0.0039223456
0002e0 e2 2a 89 bc 6b ab 62 bc 7f 3d dc 3d 67 56 9d bc
       -0.01674408 -0.013834815 0.10753917 -0.019206239
0002f0 6a ef 5e 3d e9 24 d6 bc de 25 0d bc a5 c4 a3 3c
       0.05442754 -0.026140647 -0.008614985 0.019991228
000300 e8 37 e7 bb 02 dc 43 bd 8e 5f ed bb 33 2f 57 bd
       -0.007056225 -0.047817238 -0.007244057 -0.052535247
000310 0d 35 47 bd d8 6f 0c bd a6 e7 e3 bd 3e ac 81 3d
       -0.048634578 -0.03428635 -0.11128168 0.06331681
000320 d2 f3 6c bd 52 4d 76 3c 8a 82 7c bd d1 42 40 bd
       -0.057849713 0.015033083 -0.06164793 -0.04693872
000330 8c ad 2f 3d 97 d7 9f 3d 63 11 59 3d 73 ec 7c 3c
       0.042890117 0.078047924 0.052995097 0.015437233
000340 4d 13 e7 3d ff d4 c2 3d ba b6 36 bd ae fe 21 bc
       0.11282978 0.09513282 -0.044607855 -0.0098873805
000350 73 35 8d 3d 09 cc bc bd e2 c0 fc 3c 9f df 9b 3d
       0.0689496 -0.09218604 0.030853692 0.07611012
000360 b7 ff a3 3a 54 0a a2 3d 10 9d d8 bc c1 b8 36 3c
       0.0012512122 0.07912126 -0.02644208 0.011152447
000370 0d 34 7f bc 1c 9b 0e 3d 30 46 43 3c 20 c5 09 bd
       -0.015576375 0.034815893 0.0119185895 -0.03363526
000380 5b eb 69 3d 7d 02 a3 3d 70 26 81 3c c5 09 fb 3d
       0.057109218 0.07959459 0.015765399 0.12257723
000390 be a1 89 bd 69 db b1 bc b3 35 a8 bd 97 9b 9e bd
       -0.06720303 -0.021711068 -0.08213367 -0.0774452
0003a0 3c d0 84 bd 34 73 52 bd d0 86 76 bd 2c 5f 32 bc
       -0.0648503 -0.051379398 -0.06018716 -0.010886949
0003b0 25 b2 9a 3d 12 00 68 bd ee 23 c4 3d ac 53 f8 3c
       0.075535096 -0.056640692 0.095771655 0.030313335
0003c0 fe 75 69 3d 6c d7 ad bd 46 ce 5e bc 57 fa 9c bd
       0.05699729 -0.08488354 -0.013598984 -0.07664936
0003d0 52 e6 90 3d b3 5a 44 bd 4f 12 eb 3b 1a 8c c1 3d
       0.0707518 -0.04793806 0.0071738134 0.094505504
0003e0 12 e6 7c bc 6d 78 07 3d f2 02 56 bd 16 d9 35 bd
       -0.015435712 0.03307383 -0.052248903 -0.044396482
0003f0 12 38 c5 3c f0 e8 6d bb f9 15 34 bd c2 f3 bb bd
       0.024074588 -0.0036302172 -0.043966267 -0.091773525
