ml/model_tiny.tflite (tflite, 41312 bytes, 5 tensors)

conv2d_1/bias f4 [32]
00000000: c556 c1bc 13f7 f0bc a537 34bd 9286 283c
00000010: 4c29 88ba d771 673c ebf6 cb3c 67a8 09bd
00000020: 2eae a83a 8d6a 39bc 89db 8abc c6c3 a93c
00000030: 481f 053a 0dd0 94bc 0c05 0db9 e8f2 0fbc
00000040: db6a e83b 2c29 1b3b e791 ac3b c0d2 2cbd
00000050: f03b 5d3c 19f7 c6bc 41aa ddbb aee5 853b
00000060: 3788 eabb f1ed ffbc 9baa b7bc 902f 81bd
00000070: 6c21 c1bc 2f7e e7bc d6d3 03bd ad90 0e3b
-0.023600945 -0.02941469 -0.04399838 0.01028599 -0.0010388284 0.014126263 0.024898013 -0.033607867
0.0012869292 -0.011316908 -0.016950386 0.020723235 0.00050782086 -0.018165613 -0.00013448688 -0.008785941
0.0070928163 0.0023675663 0.0052664164 -0.042193174 0.01350306 -0.024287747 -0.0067646806 0.004086218
-0.0071573514 -0.031241389 -0.022420218 -0.063079 -0.023575507 -0.028258411 -0.032184444 0.0021753714

conv2d/bias f4 [32]
00000000: 6c27 453c 5a85 d1bb 1f87 a63c fade 393c
00000010: 87fa fe3c 0a50 c43c a2dd a73c baa0 98bc
00000020: b533 ac3c 7cc4 953c 88b5 e23a e6d7 6e3c
00000030: a66f e5bb f668 9bbc 84f3 51bd 292f 1a3d
00000040: 2b30 ec3c 7356 263c b49f b2bb 581d 483d
00000050: 9c34 6f3c 4994 863a 929b 1d3c b0bd b33c
00000060: 5eb2 413c faff 643a 11ca 68b9 8990 4c3a
00000070: fc6d 153b 2983 cb3c de20 7ebc d4a1 893c
0.012033325 -0.0063940706 0.020328103 0.011344666 0.03112532 0.023963947 0.020491425 -0.018631328
0.02102075 0.018282168 0.0017296532 0.014577841 -0.007001835 -0.018970948 -0.051257625 0.03764263
0.028831562 0.010152447 -0.005451167 0.04885611 0.014599945 0.0010267581 0.00961961 0.021941036
0.011822311 0.0008735653 -0.0002220052 0.000780352 0.0022801151 0.024842815 -0.015510766 0.016800798

std.constant1 i1 [1, 25088] scale=0.00092988135 zero_point=0
00000000: ea42 1f3b 48f9 2233 192d 431c 6f37 12d2
00000010: ef29 e8f3 1531 0030 5302 d73a 471b 2833
00000020: e923 0626 1dfa 2219 1449 3f1a 40ff 33e0
00000030: ec1f d1d8 0615 212d 20fd def2 36df 3f1c
00000040: e4fd f8fe 19fe 2e24 ec35 0004 24f9 2ddb
00000050: ef24 dcd8 f821 ec2b ffcf bbd5 28d6 0434
00000060: d410 d41b 21f7 2926 f13c fd04 1a16 13dd
00000070: ea26 d2d7 0329 e735 23f0 d7f5 2dc6 ee2e
00000080: e909 df03 2702 1907 0c39 260c 3209 25cf
00000090: 0326 e1e1 061d 022b 18fb cbe4 3002 d309
000000a0: ec15 04da 1ff5 070e f32d 2f09 2dfc 39e3
000000b0: f2fe e1cf f835 e50e 3bbc eaed 1901 1221
000000c0: e3f2 f2fa 0806 eb21 0f48 5a06 4f16 1ff4
000000d0: 1219 f2dd 0f27 f12e 3cec 12fe 370f f308
000000e0: fb13 c6e5 16ef ed34 072c 0df9 330e 08f0
000000f0: ea1a f2f0 ff12 fc18 11bf d6f5 1fd5 1418
-0.02045739 0.06137217 0.028826322 0.054863 0.06695145 -0.0065091695 0.031615965 0.047423948
0.023247033 0.041844662 0.06230205 0.026036678 0.10321683 0.051143475 0.016737863 -0.042774543
-0.015807983 0.038125135 -0.022317152 -0.012088457 0.019527508 0.045564186 0.0 0.044634305
0.077180155 0.0018597627 -0.038125135 0.053933118 0.06602158 0.025106797 0.037195254 0.047423948
-0.021387272 0.032545846 0.005579288 0.035335492 0.026966559 -0.005579288 0.031615965 0.023247033
0.018597627 0.06788134 0.058582526 0.024176914 0.059512407 -0.00092988135 0.047423948 -0.029756203
-0.018597627 0.028826322 -0.043704424 -0.037195254 0.005579288 0.019527508 0.030686084 0.041844662
0.029756203 -0.002789644 -0.031615965 -0.013018339 0.050213594 -0.030686084 0.058582526 0.026036678
-0.026036678 -0.002789644 -0.007439051 -0.0018597627 0.023247033 -0.0018597627 0.042774543 0.033475727
-0.018597627 0.049283713 0.0 0.0037195254 0.033475727 -0.0065091695 0.041844662 -0.03440561
-0.015807983 0.033475727 -0.033475727 -0.037195254 -0.007439051 0.030686084 -0.018597627 0.039984897
-0.00092988135 -0.045564186 -0.064161815 -0.039984897 0.037195254 -0.039055016 0.0037195254 0.04835383
-0.04091478 0.014878102 -0.04091478 0.025106797 0.030686084 -0.008368932 0.038125135 0.035335492
-0.013948221 0.055792883 -0.002789644 0.0037195254 0.024176914 0.02045739 0.017667746 -0.032545846
-0.02045739 0.035335492 -0.042774543 -0.038125135 0.002789644 0.038125135 -0.023247033 0.049283713
0.032545846 -0.014878102 -0.038125135 -0.010228695 0.041844662 -0.053933118 -0.016737863 0.042774543
-0.021387272 0.008368932 -0.030686084 0.002789644 0.036265373 0.0018597627 0.023247033 0.0065091695
0.011158576 0.053003237 0.035335492 0.011158576 0.046494067 0.008368932 0.03440561 -0.045564186
0.002789644 0.035335492 -0.028826322 -0.028826322 0.005579288 0.026966559 0.0018597627 0.039984897
0.022317152 -0.0046494068 -0.049283713 -0.026036678 0.044634305 0.0018597627 -0.041844662 0.008368932
-0.018597627 0.019527508 0.0037195254 -0.035335492 0.028826322 -0.010228695 0.0065091695 0.013018339
-0.012088457 0.041844662 0.043704424 0.008368932 0.041844662 -0.0037195254 0.053003237 -0.026966559
-0.013018339 -0.0018597627 -0.028826322 -0.045564186 -0.007439051 0.049283713 -0.025106797 0.013018339
0.054863 -0.06323193 -0.02045739 -0.017667746 0.023247033 0.00092988135 0.016737863 0.030686084
-0.026966559 -0.013018339 -0.013018339 -0.005579288 0.007439051 0.005579288 -0.019527508 0.030686084
0.013948221 0.06695145 0.083689325 0.005579288 0.07346062 0.02045739 0.028826322 -0.011158576
0.016737863 0.023247033 -0.013018339 -0.032545846 0.013948221 0.036265373 -0.013948221 0.042774543
0.055792883 -0.018597627 0.016737863 -0.0018597627 0.051143475 0.013948221 -0.012088457 0.007439051
-0.0046494068 0.017667746 -0.053933118 -0.025106797 0.02045739 -0.015807983 -0.017667746 0.04835383
0.0065091695 0.04091478 0.012088457 -0.0065091695 0.047423948 0.013018339 0.007439051 -0.014878102
-0.02045739 0.024176914 -0.013018339 -0.014878102 -0.00092988135 0.016737863 -0.0037195254 0.022317152
0.015807983 -0.060442287 -0.039055016 -0.010228695 0.028826322 -0.039984897 0.018597627 0.022317152

std.constant2 f4 [32, 3, 3, 3]
00000000: c265 0bbe 82bc a4bd c4c1 57bd 1a2c 303d
00000010: 2fba 05be 32bb 03bd 45f3 933c 310f c9bd
00000020: 83a6 19bd e9b0 bd3d 9814 ccbd 1b1a 0bbd
00000030: 9332 f5bb 2b3e eb3c df79 b7bc 9d22 c0bd
00000040: 7364 b0bd 6299 8bbd cc87 f13d 19b3 4e3d
00000050: 3a56 2b3e abad 93bd 256f b7bd 55e3 2b3e
00000060: 19f0 2d3e f853 ea3d e085 2c3e 3244 4bbd
00000070: a20d e9bd 8f85 32bb 0d4f 19be 90ed 7e3c
00000080: 98b8 cb3d 46c8 51bd 5b70 b13d 819d 073e
00000090: 92b9 8fbd e99d 28bb c827 d13d f8d6 033e
000000a0: a7dc 0e3e c0fb 25bd a51a 353c 2255 72bd
000000b0: 2bd5 f83b e55b ba3c 2ffa f5bb 4bc3 f23d
000000c0: dde9 e03d 7d26 99bc 0f65 0dbe 66b2 c0bd
000000d0: 6dba a53d c9ce 51bd 29ed e9bd baf5 dcbb
000000e0: 410a 643d d840 debc 2086 0dbe c501 dfbd
000000f0: 33aa 0f3e 7a5f fe3c 29b0 1ebd fc8e a83d
00000100: 5292 083e 4c0f f6bd 44f9 40bd 3922 9ebd
00000110: 0ad7 0b3e 62f0 7d3d 9192 40bd 1d7f 5ebd
00000120: adca f4bd 0ee4 a43c 79df 52bd 9403 f03d
00000130: e839 aa3d 1a36 d13c a14f 983c 6cf5 fb3d
00000140: d28c dcbd 7dce 19bd f400 efbd 9889 fe3d
00000150: 1b73 133e aa92 07be f503 bb3d 1608 f3bd
00000160: 6278 2a3d 00e1 1f3e ede0 e93d 9820 e3bd
00000170: 9efd b83d bc06 bd3d 15b1 633c 67f9 52bd
00000180: e4a2 fbbd 4cf5 853d 9634 253d b99c 4abd
00000190: ef19 a5bd c790 833a 8d03 b2bb 6511 183c
000001a0: 8bd6 0c3d d9fc 403c c489 8bbd 4fa8 b1bd
000001b0: 02ea 4dbd b9f4 cebd 9bcd bd3d f207 f33d
000001c0: 36df dc3c a718 babd 96b2 cd3c 7259 203e
000001d0: 34ad abbd 89ca 10be 7138 d2bd 4955 92bd
000001e0: 591f 1a3c 4a2a 96bd 7d73 b0bd 32d0 913c
000001f0: c2b8 023d ce1e cd3d 0d2c c4bc 9dcb bd3b
00000200: ef7e 4bbd 2cec 883d cc31 23bb 8029 b43d
00000210: 0bad 1abe 8f1d c8bd bba5 373b 2464 f33d
00000220: 9de8 b5bb 90c9 053d b242 c6bd 613a d63d
00000230: 9749 bdbd 904b 08be 7ac9 103e 5bc5 abbd
00000240: 70b2 bbbd a7c8 033e 1c82 d03d 9b0d c2bd
00000250: 623a 013e 62d3 92bd 6e44 9abd 7295 41bd
00000260: f0ae b23d f47b 0b3d 30ce e03d e169 bebd
00000270: b6c5 9ebd 34af 73bd b4fb 353d 91f0 a2bd
00000280: 7971 35bd 4d24 523c 347f d03d a163 653b
00000290: 2fb6 a1bd a2cd e2bd be0a 13be 04e5 2d3d
000002a0: 8413 053e 516e f8bd 9782 b73d bb45 c5bc
000002b0: eb55 7f3d 1953 8fbd 8a01 0a3b 1c90 9b3d
000002c0: 30fb 903d fdf5 20be 5395 17be a6bb ed3d
000002d0: dac5 693d f1a4 a7bd 3747 f3bc 5a40 d4bd
000002e0: b54e cf3d 8a17 a9bd 91a2 cdbd bf63 df3d
000002f0: bc31 933d 00b1 e73d 35e5 c63c 90f5 e13d
00000300: 6bf8 083e 959f db3d 695e a83d 490b 8a3d
00000310: b66a e7bc 01b3 0d3e 4b00 f43d 1b36 a2bb
00000320: 5bf9 793b 4c23 5ebd bc8d 0ebe a522 9c3d
00000330: 10b1 7dbd 9de0 12be 29f6 e73c 839a 14be
00000340: 62c1 e2bd 84ac 1b3d ce19 0fbe cc53 813d
00000350: 8f60 f9bc 867e 9fbb 993d 5b3d 7575 0bbe
00000360: 39af 253e fb41 36bd f93b bbbd 5536 08bc
00000370: f34d ee3d 30fd c4bb 8da7 03be 867e ccbd
00000380: f965 b63c de64 01bd be6b 98bd fae0 223e
00000390: 8973 7ebd 02e9 e63d 86a8 9abd f518 96bd
000003a0: 0114 0bbe 11f3 d53d e0a3 e53d a195 113d
000003b0: c4f4 b7bd fe13 123e 262c 0b3d cb89 5d3d
000003c0: f5f1 cdbd c6e2 fabd a9a5 60bd d2ee 973c
000003d0: b6f9 db3d c11b 2e3e f863 c6bd 2c39 473d
000003e0: fb79 f7bd c442 f93b 0d69 7a3d 4a94 443d
000003f0: b2df 103e dbed 82bc 175a dc3d 9fa8 d1bd
-0.13613036 -0.080437675 -0.052675024 0.04301081 -0.13059305 -0.032160945 0.018060336 -0.09817351
-0.037512314 0.092622586 -0.099648654 -0.033960443 -0.0074828356 0.028716167 -0.02239698 -0.09381602
-0.08612909 -0.06816365 0.11793479 0.05046377 0.16732112 -0.07210859 -0.08956746 0.16785939
0.16986121 0.11441797 0.16847944 -0.049625583 -0.113795534 -0.0027240252 -0.14971562 0.015559569
0.09947318 -0.051216386 0.08664008 0.13243677 -0.070178166 -0.0025728887 0.10212666 0.12874973
0.1395136 -0.04052329 0.011053716 -0.05916322 0.007593771 0.022748897 -0.007506631 0.118536554
0.10982106 -0.01869511 -0.13808082 -0.09409027 0.080921985 -0.051222596 -0.11422188 -0.00674316
0.05567384 -0.02713053 -0.13820696 -0.108890094 0.1402977 0.031051386 -0.03874222 0.08230397
0.13337067 -0.120146364 -0.04711272 -0.07721371 0.1365625 0.061996825 -0.047014777 -0.054320443
-0.1195272 0.020128276 -0.05148265 0.117194325 0.08311826 0.025538493 0.018592658 0.1230267
-0.10769047 -0.03755044 -0.11670104 0.12428588 0.14399378 -0.13239542 0.09131614 -0.11866777
0.041618712 0.15613174 0.11419854 -0.11090201 0.09032749 0.092298 0.0138972 -0.05150738
-0.12286928 0.06540927 0.040333353 -0.04946587 -0.08061587 0.0010037654 -0.005432552 0.009281491
0.03438429 0.011779034 -0.06813386 -0.086746804 -0.050271995 -0.10105271 0.09267732 0.1186675
0.026961904 -0.09086733 0.02510957 0.1565912 -0.08382645 -0.14139761 -0.102646716 -0.07145173
0.009406888 -0.07332285 -0.08615778 0.01779947 0.03191448 0.10015641 -0.023946786 0.005792095
-0.0496816 0.06685671 -0.0024901507 0.08796978 -0.15105073 -0.09771263 0.0028022367 0.11884335
-0.0055514113 0.032662928 -0.0968069 0.10460354 -0.09242552 -0.13310075 0.14139357 -0.08387252
-0.091648936 0.12869512 0.101810664 -0.09475251 0.12619928 -0.07169224 -0.07532583 -0.047261663
0.08724773 0.034053758 0.10976827 -0.092975385 -0.07752554 -0.05949326 0.044429496 -0.07956041
-0.04429767 0.012826038 0.10180512 0.003500201 -0.07896077 -0.110743776 -0.14359567 0.042454734
0.12995726 -0.12130416 0.08960455 -0.024081102 0.062337797 -0.069982715 0.0021058046 0.07595846
0.0707916 -0.15718837 -0.14803056 0.11608057 0.05707345 -0.08185757 -0.029697044 -0.103638366
0.10122434 -0.08256443 -0.10040773 0.10907697 0.071872205 0.11313057 0.024279216 0.110331655
0.13376014 0.10723797 0.08221132 0.06740434 -0.028249126 0.13837816 0.119141184 -0.0049502975
0.0038143012 -0.05423288 -0.13921255 0.076237954 -0.061936438 -0.14343496 0.02831562 -0.14512067
-0.11072041 0.03800632 -0.13974687 0.06314811 -0.03044155 -0.0048673777 0.05352554 -0.13619025
0.16180123 -0.044496518 -0.09142298 -0.008313735 0.116359614 -0.0060116276 -0.12856884 -0.0998507
0.022265421 -0.031590335 -0.07442425 0.15906134 -0.0621219 0.112749115 -0.075516745 -0.07328979
-0.1358185 0.10446752 0.11212897 0.035543088 -0.08982232 0.14265439 0.03397765 0.054086488
-0.10055915 -0.12250285 -0.054845486 0.018546496 0.10740988 0.17002775 -0.09687036 0.048638508
-0.12083813 0.007606836 0.06113534 0.047992982 0.14147833 -0.015982559 0.10759371 -0.1023724

std.constant3 i1 [32, 3, 3, 32]
00000000: 05c9 c117 d1ff c5cf 46bc 0fe7 3fe1 58f2
00000010: c663 a81c ecce e3ee 9aff 9733 26a5 f1c9
00000020: e141 0540 1913 66bc 2abb eef5 3374 2ee3
00000030: eeeb 351f dfbc afca 9f16 19ef c1d6 eddd
00000040: ab4e 2651 cc1e c5e1 b618 2f2a 00ea 14bf
00000050: 9f4e a8fd 16e9 ade9 de3a 1817 c2f2 0ce8
00000060: d029 28ca f91c f004 35e4 e0a2 4172 4ffb
00000070: a451 4d3a 360e c2aa 9528 9864 1a15 1b14
00000080: 07df bf27 3425 79be fa15 1015 362e 3eef
00000090: 976f ae4d 38e8 9b21 281c 0807 473d f613
000000a0: a715 3753 b0f6 b3b3 4117 ea21 bddb 4d4c
000000b0: 86e0 2a5c dae3 cd2c 14f9 276b 099b 24a3
000000c0: 483b 8d06 eba5 d936 28aa d0c3 c7f2 08cc
000000d0: dfdb f313 4421 d397 140e 897f b7ab 59ae
000000e0: ca24 2c4a cc41 d921 58fb e2e5 fd3b 3a47
000000f0: b8d7 af09 df30 2802 b376 0365 d2b0 c0c1
5 -55 -63 23 -47 -1 -59 -49
70 -68 15 -25 63 -31 88 -14
-58 99 -88 28 -20 -50 -29 -18
-102 -1 -105 51 38 -91 -15 -55
-31 65 5 64 25 19 102 -68
42 -69 -18 -11 51 116 46 -29
-18 -21 53 31 -33 -68 -81 -54
-97 22 25 -17 -63 -42 -19 -35
-85 78 38 81 -52 30 -59 -31
-74 24 47 42 0 -22 20 -65
-97 78 -88 -3 22 -23 -83 -23
-34 58 24 23 -62 -14 12 -24
-48 41 40 -54 -7 28 -16 4
53 -28 -32 -94 65 114 79 -5
-92 81 77 58 54 14 -62 -86
-107 40 -104 100 26 21 27 20
7 -33 -65 39 52 37 121 -66
-6 21 16 21 54 46 62 -17
-105 111 -82 77 56 -24 -101 33
40 28 8 7 71 61 -10 19
-89 21 55 83 -80 -10 -77 -77
65 23 -22 33 -67 -37 77 76
-122 -32 42 92 -38 -29 -51 44
20 -7 39 107 9 -101 36 -93
72 59 -115 6 -21 -91 -39 54
40 -86 -48 -61 -57 -14 8 -52
-33 -37 -13 19 68 33 -45 -105
20 14 -119 127 -73 -85 89 -82
-54 36 44 74 -52 65 -39 33
88 -5 -30 -27 -3 59 58 71
-72 -41 -81 9 -33 48 40 2
-77 118 3 101 -46 -80 -64 -63
