ml/model2.tflite (tflite, 46896 bytes, 13 tensors)

dense/bias f4 [128]
0.021553101 -0.03580959 -0.040589366 0.019139318 -0.016857836 -0.010770993 -0.012757456 0.0145138195
-0.010407327 -0.03211415 0.02781995 0.016654229 -0.02998683 0.010270478 0.028913714 0.018502869
0.009755155 0.0158199 0.0021703762 0.03539909 0.03188453 0.048150565 0.027159424 -0.0027543975
0.028983684 -0.012035315 0.05443513 0.012487031 0.0051244874 -0.023784092 0.053005766 0.036955934
0.014326437 -0.011158958 0.0 0.065736584 3.095786e-05 0.032174006 0.0748455 -0.019037446
0.06679746 0.037102465 -0.0022132983 0.061409414 0.019682828 -0.01145293 0.03944358 0.015816549
-0.021669798 0.033071347 0.047122627 0.022253552 0.006837734 0.0 0.054165773 -0.00902677
0.008248327 0.00773082 0.03842364 0.07126119 -0.0101748975 0.04017102 0.012232323 -0.0115545625
0.026533006 0.0144105945 -0.031702675 0.049604174 0.0119009 0.00077499484 -0.045430113 0.0008828464
-0.006790316 -0.021203017 -0.014548325 -1.6782113e-05 0.0 0.060732506 -0.01971541 0.014147141
-0.0038249248 0.081556745 -0.0025427146 -0.006061377 -0.006519694 0.01220704 -0.0016432393 0.052239537
0.017541582 -0.010277229 0.03386553 -0.002213296 0.06568033 0.01838142 0.06750449 -0.009073926
0.062343594 0.046056423 -0.05922337 -0.0033528863 0.08319154 0.08755509 -0.013315288 -0.018042961
-0.0014214877 0.021545475 0.03487879 0.06067383 0.06078501 0.021550534 0.0040011085 0.015495888
0.0025845412 0.07132975 0.0325556 -0.016045146 -0.011383828 0.07269621 -0.008715654 -0.02412883
0.040024187 0.07202385 0.056829758 -0.024587188 0.0910099 0.029252749 0.032501724 0.00118787
00000000: 2190 b03c 14ad 12bd 0941 26bd 0fca 9c3c
00000010: 7219 8abc d278 30bc a604 51bc 5fcb 6d3c
00000020: 7e83 2abc 208a 03bd aae6 e33c 736e 883c
00000030: f1a6 f5bc 8245 283c 74dc ec3c 5493 973c
00000040: 16d4 1f3c bc98 813c df3c 0e3b a3fe 103d
00000050: 5a99 023d 8739 453d 717d de3c 1f83 34bb
00000060: 316f ed3c c52f 45bc 5ff7 5e3d 6796 4c3c
00000070: 51eb a73b dbd6 c2bc 931c 593d 1b5f 173d
00000080: 6fb9 6a3c 10d4 36bc 0000 0000 e7a0 863d
00000090: c0d8 0138 e4c8 033d 9948 993d 6bf4 9bbc
000000a0: 1bcd 883d c1f8 173d fc0c 11bb 7088 7b3d
000000b0: e23d a13c 12a5 3bbc 978f 213d b591 813c
000000c0: dc84 b1bc d275 073d a803 413d 154d b63c
000000d0: 120f e03b 0000 0000 eedc 5d3d 04e5 13bc
000000e0: fe23 073c d252 fd3b 1b62 1d3d 63f1 913d
000000f0: 9db4 26bc 5e8a 243d 156a 483c 594f 3dbc
00000100: bf5b d93c 6a1a 6c3c aada 01bd bf2d 4b3d
00000110: fefb 423c 0629 4b3a ed14 3abd d26e 673a
00000120: 4d81 debb f3b1 adbc 195c 6ebc 50c7 8cb7
00000130: 0000 0000 a6c2 783d 3682 a1bc 69c9 673c
00000140: 97ab 7abb 3907 a73d aca3 26bb 849e c6bb
00000150: 28a3 d5bb 0900 483c f661 d7ba 20f9 553d
00000160: 5db3 8f3c d361 28bc 95b6 0a3d f20c 11bb
00000170: 6983 863d a294 963c cb3f 8a3d ceaa 14bc
00000180: ff5b 7f3d a9a5 3c3d 3494 72bd 19bc 5bbb
00000190: 5360 aa3d 1550 b33d 5e28 5abc d5ce 93bc
000001a0: 3651 baba 2380 b03c 10dd 0e3d 1f85 783d
000001b0: b4f9 783d bf8a b03c bb1b 833b 77e2 7d3c
000001c0: 6861 293b 5515 923d 0559 053d 1c71 83bc
000001d0: 3c83 3abc c0e1 943d 1acc 0ebc d3a9 c5bc
000001e0: 67f0 233d 3e81 933d 52c6 683d 126b c9bc
000001f0: 6663 ba3d 76a3 ef3c 8720 053d 4eb2 9b3a

conv2d_4/bias f4 [32]
-0.02210788 0.04357127 0.037978448 -0.042366505 0.011178121 -0.036572237 0.035163987 -6.5345957e-06
0.049221963 -0.019770361 -0.028722825 0.038269542 -0.013150567 -0.0068393582 0.0036702682 -0.03412021
0.037288897 0.050102167 0.036009967 0.039056268 0.009288451 -0.019260915 -0.0070468104 0.04098551
-0.039315216 0.05343653 -0.006768522 -0.027121197 0.03125755 0.05576767 -0.014771923 -0.0302556
00000000: 961b b5bc ca77 323d 4a8f 1b3d 8088 2dbd
00000010: 7024 373c c5cc 15bd 1d08 103d c043 dbb6
00000020: f89c 493d 74f5 a1bc 214c ebbc 86c0 1c3d
00000030: 7a75 57bc b21c e0bb e288 703b a2c1 0bbd
00000040: 3ebc 183d ee37 4d3d 307f 133d 77f9 1f3d
00000050: 962e 183c 11c9 9dbc eee8 e6bb 6ce0 273d
00000060: fe08 21bd 43e0 5a3d 7aca ddbb 462d debc
00000070: eb07 003d a46c 643d f005 72bc 98da f7bc

conv2d_3/bias f4 [32]
0.007451122 0.0439088 0.031910285 -0.032565005 0.016052641 -0.014041995 0.02567509 -0.005365945
-0.053091336 0.03428056 -0.03274472 -0.022096138 0.037694063 -0.018313944 -0.037544247 0.05020916
-0.043805603 -0.037903022 -0.0589574 0.047643017 0.02399401 0.06264637 -0.044137668 -0.05122069
-0.009448392 0.069368586 -0.021572726 0.022100724 0.023191037 0.03078987 0.021720447 0.039242264
00000000: 8b28 f43b b7d9 333d 5cb4 023d e262 05bd
00000010: d480 833c 6510 66bc 9154 d23c cfd4 afbb
00000020: 4d76 59bd c669 0c3d 541f 06bd f602 b5bc
00000030: 1765 1a3d 2007 96bc ffc7 19bd 1fa8 4d3d
00000040: 816d 33bd 3340 1bbd 517d 71bd 5325 433d
00000050: 168f c43c bd4c 803d b3c9 34bd c9cc 51bd
00000060: 6ecd 1abc 1e11 8e3d 49b9 b0bc 940c b53c
00000070: 21fb bd3c 0a3b fc3c 14ef b13c 7fbc 203d

conv2d_2/bias f4 [32]
0.0053988807 0.0030040462 0.041653026 0.044499934 -0.03505318 0.024307176 -0.012201557 -0.025588311
-0.025424814 -0.018992042 -0.0072060656 -0.0457002 -0.022980835 -0.040359113 0.017669924 -0.026396256
-0.005087169 -0.037760127 -0.028541323 -0.01744691 -0.057475347 -0.015560822 -0.026313351 -0.030340362
-0.018553717 -0.024482131 0.0064203935 -0.013768759 0.037659306 -0.014076852 0.03266812 -0.038800452
00000000: 18e9 b03b 88df 443b 5d9c 2a3d 9045 363d
00000010: ec93 0fbd d81f c73c 0ae9 47bc 949e d1bc
00000020: b347 d0bc 3395 9bbc dc20 ecbb 2230 3bbd
00000030: 4e42 bcbc 994f 25bd 84c0 903c f63c d8bc
00000040: 44b2 a6bb 5daa 1abd 7ecf e9bc d2ec 8ebc
00000050: 456b 6bbd d1f2 7ebc 198f d7bc 5a8c f8bc
00000060: f7fd 97bc c08e c8bc 2a62 d23b 5c96 61bc
00000070: a540 1a3d 99a2 66bc 02cf 053d 39ed 1ebd

conv2d_1/bias f4 [32]
0.016070358 -0.024854662 -0.011299762 -0.033921354 -0.015438998 -0.048958957 0.021227676 0.0036604134
0.034820426 -0.012872238 0.019249702 0.036789976 0.032063797 -0.0015223316 0.0033675916 0.032444324
0.0048651295 -0.06084454 0.034024842 -0.027935255 -0.024870273 0.050122194 0.008400086 -0.036143303
-0.035068985 -0.00040767796 -0.032871064 -0.015921453 -0.014008661 -0.0032861317 -0.0002857389 0.010650373
00000000: fca5 833c 019c cbbc a322 39bc 1ef1 0abd
00000010: daf3 7cbc 3089 48bd aae5 ad3c 8ce3 6f3b
00000020: dd9f 0e3d 14e6 52bc 8db1 9d3c 16b1 163d
00000030: 5455 033d f988 c7ba d0b2 5c3b 57e4 043d
00000040: aa6b 9f3b 2038 79bd a25d 0b3d 7ad8 e4bc
00000050: bebc cbbc ee4c 4d3d 84a0 093c 000b 14bd
00000060: 7fa4 0fbd 9cbd d5b9 cfa3 06bd b56d 82bc
00000070: 9584 65bc 245c 57bb 3acf 95b9 e77e 2e3c

conv2d/bias f4 [16]
0.022390928 0.00909055 0.0020574345 -0.00818599 -0.016359925 0.034761813 -0.0041344496 -0.0034301272
0.05610196 0.007520608 0.031926923 0.013559685 0.030433072 -0.07537731 -0.01106536 0.019737065
00000000: 2e6d b73c 88f0 143c 06d6 063b 881e 06bc
00000010: 4005 86bc 6762 0e3d 477a 87bb fccb 60bb
00000020: 2bcb 653d 6f6f f63b cec5 023d 7129 5e3c
00000030: c74e f93c 6b5f 9abd 7c4b 35bc a0af a13c

std.constant1 i1 [128, 32] scale=0.0022830432 zero_point=0
0.17122824 0.1004539 0.1849265 -0.05707608 0.0068491297 0.08218956 -0.12100129 0.20547388
-0.08218956 -0.09817086 0.2374365 -0.068491295 0.0844726 -0.13926564 0.15981303 0.07305738
-0.09132173 -0.09588782 -0.11186912 -0.04109478 -0.11643521 -0.13469955 0.0022830432 0.0844726
0.21917215 -0.2009078 0.061642166 -0.02054739 -0.10273694 -0.11186912 0.0045660865 0.07762347
-0.15981303 0.061642166 -0.21688911 0.08675564 -0.07762347 0.0045660865 0.13926564 -0.10501999
-0.21232302 -0.17579433 -0.17122824 0.10273694 0.12328433 -0.13926564 -0.059359126 0.0068491297
-0.109586075 0.08218956 0.11186912 0.11186912 -0.1004539 -0.06392521 0.013698259 -0.16666216
-0.1483978 -0.22602127 -0.1483978 0.052509993 0.07305738 -0.11415216 0.031962603 0.1004539
-0.15068085 -0.13013346 0.089038685 0.15296389 -0.07534043 -0.061642166 -0.054793037 -0.0022830432
-0.15524694 -0.18264346 0.015981302 -0.009132173 -0.06620825 -0.17807737 -0.20319085 -0.15981303
0.05022695 0.16437912 -0.11415216 -0.19405867 -0.15752998 0.027396519 -0.1689452 -0.17122824
-0.11871825 -0.19634172 0.08218956 -0.0068491297 -0.10273694 0.09132173 0.05707608 0.031962603
0.19634172 -0.059359126 0.11415216 0.009132173 0.21460606 0.19634172 0.03652869 0.1324165
-0.26711607 -0.10501999 0.14383173 -0.04109478 0.14154868 0.10730303 0.09360477 -0.018264346
0.12100129 -0.022830432 0.12556738 0.04109478 -0.0045660865 -0.015981302 0.14154868 0.009132173
-0.1324165 -0.12100129 -0.15981303 0.031962603 -0.13926564 -0.15296389 0.022830432 0.029679563
0.24200258 0.031962603 0.17351128 -0.04794391 0.14383173 0.07305738 -0.09132173 0.109586075
0.11415216 0.13469955 0.14611477 -0.16666216 0.10501999 0.027396519 0.15068085 0.20319085
-0.10730303 -0.025113475 -0.12785041 0.10273694 0.0068491297 0.079906516 0.09360477 -0.22602127
-0.1324165 -0.12785041 0.22145519 0.061642166 0.045660865 0.02054739 0.15296389 0.16209607
0.24885172 0.14154868 -0.04337782 0.025113475 0.054793037 0.0844726 -0.07534043 0.0022830432
-0.045660865 -0.18036042 0.13469955 0.14383173 -0.13698259 -0.15981303 0.12328433 -0.12328433
0.089038685 -0.22830433 -0.17807737 -0.03652869 0.10501999 0.18036042 -0.09360477 -0.12556738
0.15981303 -0.16666216 -0.10501999 -0.15068085 -0.07305738 -0.11643521 0.10501999 0.17122824
0.13469955 0.054793037 -0.13698259 0.1004539 0.14383173 0.14154868 0.009132173 -0.11186912
-0.15981303 0.04337782 0.16437912 -0.025113475 -0.029679563 0.054793037 0.11643521 -0.12785041
0.061642166 -0.15296389 0.08675564 0.054793037 -0.09588782 0.13469955 0.16666216 0.02054739
-0.08675564 -0.07762347 0.19634172 -0.11871825 -0.16437912 -0.10501999 -0.07534043 -0.13013346
0.0 0.1689452 -0.15296389 0.12100129 -0.089038685 0.03652869 0.09360477 0.068491295
0.23971954 -0.18036042 -0.018264346 -0.07077434 -0.14611477 0.0 -0.068491295 0.07534043
0.25113475 -0.10730303 0.16209607 0.24200258 -0.15068085 0.17122824 -0.0844726 0.05707608
0.07762347 0.20547388 -0.04337782 0.011415216 0.07762347 0.21232302 0.12556738 -0.12100129
00000000: 4b2c 51e7 0324 cb5a dcd5 68e2 25c3 4620
00000010: d8d6 cfee cdc5 0125 60a8 1bf7 d3cf 0222
00000020: ba1b a126 de02 3dd2 a3b3 b52d 36c3 e603
00000030: d024 3131 d4e4 06b7 bf9d bf17 20ce 0e2c
00000040: bec7 2743 dfe5 e8ff bcb0 07fc e3b2 a7ba
00000050: 1648 ceab bb0c b6b5 ccaa 24fd d328 190e
00000060: 56e6 3204 5e56 103a 8bd2 3fee 3e2f 29f8
00000070: 35f6 3712 fef9 3e04 c6cb ba0e c3bd 0a0d
00000080: 6a0e 4ceb 3f20 d830 323b 40b7 2e0c 4259
00000090: d1f5 c82d 0323 299d c6c8 611b 1409 4347
000000a0: 6d3e ed0b 1825 df01 ecb1 3b3f c4ba 36ca
000000b0: 279c b2f0 2e4f d7c9 46b7 d2be e0cd 2e4b
000000c0: 3b18 c42c 3f3e 04cf ba13 48f5 f318 33c8
000000d0: 1bbd 2618 d63b 4909 dade 56cc b8d2 dfc7
000000e0: 004a bd35 d910 291e 69b1 f8e1 c000 e221
000000f0: 6ed1 476a be4b db19 225a ed05 225d 37cb

std.constant2 f4 [1, 128]
0.14516391 -0.0027582187 -0.029768221 0.11454491 0.24629466 0.1263459 0.22792535 -0.14912663
0.16456933 0.18442756 -0.19078557 -0.1722644 0.06120024 0.23842296 -0.18229192 -0.21113965
-0.061701454 0.06318347 0.124019764 -0.20826547 -0.03632297 -0.073261045 -0.106361054 0.24075405
0.024640765 0.18045963 -0.1995419 -0.1692652 0.04319085 0.0052294284 -0.20879132 -0.1862893
-0.0995387 -0.19639497 -0.14456674 -0.2399756 -0.08746505 -0.2261394 -0.21999693 0.06867297
-0.30577955 -0.265939 0.07189085 -0.2764743 0.11084186 0.076517075 -0.10173585 0.0401075
0.13004032 -0.08569397 -0.09810276 0.18102969 0.2325074 -0.123794414 -0.28355742 0.1311388
-0.16174033 0.099424645 -0.26241788 -0.15282053 -0.13862216 -0.18014717 0.08637469 0.07472269
-0.06874274 -0.0707113 0.09965788 -0.17624576 0.30239376 0.2131137 -0.055083435 0.07782791
0.0868878 -0.07534428 0.17045094 0.24061303 -0.00023195148 -0.08645518 0.126059 0.30776492
0.18047908 -0.21376161 -0.05541918 0.03553177 0.24668771 -0.14419292 0.1533202 -0.16643925
-0.053115662 0.06160725 -0.14083868 0.07988548 -0.13434866 -0.25484407 -0.18117014 0.041945904
-0.20153251 -0.12294807 0.026970113 0.28485817 -0.30079493 -0.12713213 0.19551057 0.010410996
0.23828812 -0.20890486 0.13704915 -0.18163317 0.08631705 -0.1803193 0.16540752 -0.12486847
0.17429987 -0.23516926 -0.23058678 0.10579554 0.16587666 -0.23762484 -0.05347132 0.16943793
-0.12825839 -0.30628002 -0.2767398 -0.07404706 -0.27774754 0.15308116 0.08791328 0.14309229
00000000: d9a5 143e 3bc3 34bb 7cdc f3bc 8696 ea3d
00000010: ab34 7c3e d260 013e 4365 693e a7b4 18be
00000020: dd84 283e 94da 3c3e 4b5d 43be 1466 30be
00000030: 1aad 7a3d 2625 743e bcaa 3abe fe34 58be
00000040: aaba 7cbd 5666 813d 13fe fd3d 8b43 55be
00000050: 65c7 14bd e309 96bd d3d3 d9bd 3b88 763e
00000060: 6edb c93c 69ca 383e b654 4cbe db53 2dbe
00000070: e4e8 303d a05b ab3b 64cd 55be 9fc2 3ebe
00000080: f2da cbbd c31b 49be 4e09 14be 2abc 75be
00000090: e020 b3bd 1691 67be e046 61be 6aa4 8c3d
000000a0: 238f 9cbe 2829 88be 833b 933d 0a8e 8dbe
000000b0: 0f01 e33d fcb4 9c3d e35a d0bd c347 243d
000000c0: 4a29 053e 5280 afbd 1aea c8bd d95f 393e
000000d0: 6b16 6e3e ed87 fdbd 702e 91be 4049 063e
000000e0: 429f 25be 269f cb3d a35b 86be fc7c 1cbe
000000f0: f8f2 0dbe 8078 38be 37e5 b03d 3608 993d
00000100: fec8 8cbd 16d1 90bd 6e19 cc3d c579 34be
00000110: 5bd3 9a3e 7a3a 5a3e 2b9f 61bd 3d64 9f3d
00000120: 3bf2 b13d 1a4e 9abd b18a 2e3e 4363 763e
00000130: 0038 73b9 6a0f b1bd 9c15 013e 5d93 9d3e
00000140: 82cf 383e 53e4 5abe 39ff 62bd c389 113d
00000150: b49b 7c3e 4fa7 13be f8ff 1c3e 0d6f 2abe
00000160: cf8f 59bd e257 7c3d 0438 10be 009b a33d
00000170: b292 09be ec7a 82be aa84 39be 78cf 2b3d
00000180: 8a5e 4ebe 33cc fbbd 6df0 dc3c eed8 913e
00000190: cb01 9abe ed2e 02be ec33 483e e292 2a3c
000001a0: cd01 743e 28eb 55be 9d56 0c3e 0cfe 39be
000001b0: fec6 b03d 9fa5 38be 9760 293e 0abb ffbd
000001c0: aa7b 323e 36d0 70be f11e 6cbe 55ab d83d
000001d0: 92db 293e ed53 73be be04 5bbd 2381 2d3e
000001e0: 2b56 03be bcd0 9cbe d7b0 8dbe fca5 97bd
000001f0: ed34 8ebe 4fc1 1c3e e10b b43d c986 123e

std.constant3 f4 [16, 3, 3, 3]
0.025298985 0.13962024 0.013334119 -0.017997947 -0.1477414 0.040007424 0.04895445 -0.05774761
-0.035942663 -0.1343587 -0.11854529 0.020372402 -0.13921264 -0.008048993 0.18224095 -0.085050255
-0.16899106 0.16921756 0.10328081 0.04177881 0.009274997 0.0102582965 0.11563256 -0.10154618
-0.14818339 0.10556932 0.18296197 -0.005325318 -0.06867543 0.16774619 -0.1330302 0.081154875
-0.13032466 0.17781149 0.18091647 -0.075014174 0.14147331 -0.09712654 0.11944533 0.16698334
0.17808248 -0.14487237 -0.1484536 -0.16941983 0.06937511 0.0815868 -0.08306907 -0.1994332
-0.123408444 0.01185057 -0.1666384 0.055717394 -0.14066592 0.17913467 0.1603947 -0.115741186
0.14835 -0.17186192 0.026145747 0.18967861 0.19371612 -0.13103803 -0.044962645 -0.065030344
-0.058088798 -0.108632274 -0.10515685 -0.19099586 0.024556646 -0.18897459 -0.010625712 -0.10624235
-0.10490133 0.037775785 0.17360061 0.15517795 0.15580085 -0.14267273 0.12775467 0.12752779
0.0050331806 0.07896677 -0.09613714 -0.022488201 0.14163053 -0.11253172 0.0424906 0.08647706
0.01335563 0.036054786 0.19070369 -0.1158635 0.0047230776 -0.15474202 -0.12626246 0.23494214
-0.033126574 -0.19700536 0.1405777 0.01810712 -0.0100955125 0.013778111 -0.12351363 -0.15863827
0.16268007 0.049820054 -0.057384796 0.014967002 0.113168746 0.005293556 0.04624807 -0.1558637
0.1766865 -0.051415462 0.14918356 -0.028918255 0.04916411 0.1751636 -0.15068647 -0.08586739
-0.107210875 0.05207247 0.008099906 -0.06407916 0.084703304 0.15163608 0.16006826 0.046423696
-0.07627876 -0.021028845 -0.14897068 -0.18618837 0.020674827 0.119829856 -0.19478205 -0.18391505
0.07737175 0.04016982 -0.06351892 -0.17535453 -0.057670426 -0.121428795 -0.04360363 0.10877608
-0.08014545 -0.01919692 0.17499393 -0.015576572 0.13273306 0.15419278 0.045132868 0.17478707
-0.121595934 -0.08561951 0.007415914 -0.03398201 0.17121686 -0.15538126 -0.15790279 -0.020343557
0.14334595 -0.16491187 -0.14130835 0.06627366 0.044554222 0.10936282 0.08681675 -0.08189793
0.12314015 -0.096200205 0.060652643 0.011869327 0.0062684496 -0.14229335 -0.15886925 -0.20422503
0.17356364 -0.012456121 -0.08096125 -0.019515308 0.07678081 -0.011492661 -0.03155395 0.086567275
-0.16441251 0.10568719 0.0244474 -0.041212246 0.040368397 -0.021708868 0.13314806 0.15376616
0.04015096 0.09662754 -0.028283963 0.008419782 -0.15385006 0.050006505 0.1068415 0.124011934
-0.01920784 0.1824056 -0.023539174 -0.030352276 -0.034605 0.14051746 -0.022388827 0.026817786
-0.12827756 0.01252887 -0.05209345 -0.06597379 -0.13514803 -0.23853259 -0.11420579 -0.017139893
-0.0505423 0.14216849 -0.14655161 -0.16219604 0.0037822623 0.13334325 0.039743777 0.03376711
-0.019935863 0.041224618 0.006949818 0.03174844 -0.072775915 -0.060813572 0.016722502 -0.12114704
0.09766876 0.01177131 -0.07815753 0.07215872 -0.095805466 0.009324441 -0.11917338 -0.03442067
-0.16660552 -0.004183489 0.0032217386 0.016802577 -0.07224188 0.008713121 0.12173619 -0.11598728
-0.14859916 -0.11625644 0.1259507 -0.14888929 0.2049532 -0.12713382 -0.18074144 -0.096525505
00000000: d13f cf3c 9cf8 0e3e 5977 5a3c 6e70 93bc
00000010: 8649 17be d3de 233d 7684 483d c288 6cbd
00000020: 9d38 13bd 5495 09be dfc7 f2bd 06e4 a63c
00000030: c28d 0ebe ecdf 03bc 5f9d 3a3e d42e aebd
00000040: fe0b 2dbe 5e47 2d3e e484 d33d 4220 2b3d
00000050: 28f6 173c 6a12 283c c3d0 ec3d 72f7 cfbd
00000060: 63bd 17be ba34 d83d 625a 3b3e 0180 aebb
00000070: b4a5 8cbd a8c5 2b3e 1239 08be 8734 a63d
00000080: d473 05be 3714 363e 2b42 393e 08a1 99bd
00000090: 61de 103e 48ea c6bd c19f f43d aefd 2a3e
000000a0: 415b 363e 6c59 14be 3804 18be 647c 2dbe
000000b0: 8a14 8e3d fb16 a73d 1e20 aabd 3738 4cbe
000000c0: 91bd fcbd e528 423c 42a3 2abe ec37 643d
000000d0: ba0a 10be 146f 373e 823e 243e b709 edbd
000000e0: 10e9 173e 92fc 2fbe 9b2f d63c 1c3b 423e
000000f0: 855d 463e d52e 06be c02a 38bd a12e 85bd
00000100: 85ee 6dbd 997a debd 795c d7bd 6b94 43be
00000110: 052b c93c 8e82 41be 7717 2ebc 9795 d9bd
00000120: 82d6 d6bd c8ba 1a3d 5cc4 313e f8e6 1e3e
00000130: 428a 1f3e cd18 12be 1fd2 023e a596 023e
00000140: 61ed a43b 54b9 a13d 8de3 c4bd 2d39 b8bc
00000150: 9807 113e 0877 e6bd a00a 2e3d e31a b13d
00000160: 93d1 5a3c 2fae 133d d447 433e d849 edbd
00000170: 0cc4 9a3b b174 1ebe f24a 01be ac94 703e
00000180: bbaf 07bd c6bb 49be 9af3 0f3e 6255 943c
00000190: a667 25bc 96bd 613c b7f4 fcbd 1272 22be
000001a0: 9b95 263e 1d10 4c3d 520c 6bbd 2838 753c
000001b0: 04c5 e73d 9175 ad3b 9e6e 3d3d bc9a 1fbe
000001c0: 4eed 343e 0599 52bd 93c3 183e fae5 ecbc
000001d0: 4e60 493d 165e 333e 8e4d 1abe 3edb afbd
000001e0: 6091 dbbd f149 553d 78b5 043c ef3b 83bd
000001f0: ed78 ad3d 7d46 1b3e efe8 233e c626 3e3d
00000200: 0a38 9cbd af44 acbc c58b 18be 2aa8 3ebe
00000210: 415e a93c 5b69 f53d f274 47be 3a54 3cbe
00000220: 1475 9e3d 1c89 243d 3516 82bd 2390 33be
00000230: d337 6cbd a9af f8bd b899 32bd fec5 de3d
00000240: 4c23 a4bd dc42 9dbc 9c31 333e e134 7fbc
00000250: 2deb 073e b6e4 1d3e 3edd 383d 62fb 323e
00000260: 4a07 f9bd 4859 afbd 3201 f33b b830 0bbd
00000270: 7953 2f3e 441c 1fbe 45b1 21be 88a7 a6bc
00000280: 48c9 123e a8de 28be 23b3 10be 7cba 873d
00000290: 7d7e 363d 9df9 df3d fbcc b13d 1aba a7bd
000002a0: e730 fc3d 9d04 c5bd e86e 783d 9177 423c
000002b0: 9167 cd3b 59b5 11be 9fae 22be 5e20 51be
000002c0: abba 313e c214 4cbc 03cf a5bd 91de 9fbc
000002d0: 423f 9d3d b74b 3cbc b73e 01bd 2f4a b13d
000002e0: c15b 28be 8772 d83d ea45 c83c 2cce 28bd
000002f0: 5559 253d ccd6 b1bc f757 083e e074 1d3e
00000300: 5575 243d a9e4 c53d c5b3 e7bc 20f3 093c
00000310: df8a 1dbe 9fd3 4c3d b7cf da3d f8f9 fd3d
00000320: c359 9dbc 89c8 3a3e 3ad5 c0bc 56a5 f8bc
00000330: f9bd 0dbd cfe3 0f3e c668 b7bc f9b0 db3c
00000340: 315b 03be e445 4d3c f15f 55bd 441d 87bd
00000350: 3f64 0abe e341 74be bae4 e9bd f668 8cbc
00000360: 7105 4fbd 9e94 113e a011 16be b816 26be
00000370: d5df 773b 228b 083e 5fca 223d 624f 0a3d
00000380: 8950 a3bc 25db 283d 4dbb e33b a70a 023d
00000390: 8a0b 95bd a717 79bd a1fd 883c f01b f8bd
000003a0: 8f06 c83d 74dc 403c 0e11 a0bd f3c7 933d
000003b0: a835 c4bd 8ac5 183c 2c11 f4bd b0fc 0cbd
000003c0: a39a 2abe a615 89bb ce23 533b 8fa5 893c
000003d0: 8df3 93bd 7ac1 0e3c d350 f93d bd8a edbd
000003e0: 612a 18be db17 eebd 38f9 003e 6f76 18be
000003f0: 40df 513e 5e2f 02be 4914 39be 2aaf c5bd

std.constant4 i1 [32, 3, 3, 16]
-49 -52 -13 -13 73 -77 58 114
-10 -58 29 -49 -43 -70 -29 -30
6 -72 7 17 -67 -70 -15 -43
-43 -70 -27 39 -10 8 33 -63
77 88 77 -89 30 -127 -82 91
-15 -53 75 87 44 58 87 -48
21 -39 104 -119 -70 18 -102 -5
-15 -53 -1 -26 90 -49 -58 14
0 78 86 -69 -69 -65 25 23
-30 -50 77 -10 5 41 -9 53
-55 82 30 -88 -20 -81 10 57
13 29 31 29 72 -21 -5 72
-89 34 98 -76 3 13 45 77
-48 61 27 20 20 -8 -38 51
-61 46 103 -97 55 -4 -14 4
19 -35 89 93 -1 -49 82 35
20 9 -26 -17 -3 26 -14 127
-104 83 117 -56 2 93 -60 27
-24 4 -70 31 -2 -24 -22 3
55 43 15 -59 -36 -48 58 -39
-28 92 69 95 -29 43 122 73
29 5 -92 41 -11 43 -38 41
-26 26 -6 56 -25 -49 102 65
6 0 -14 -27 45 10 77 -50
-47 -11 -16 32 -19 92 122 42
-69 -50 2 15 -62 58 58 18
-62 13 23 120 68 -49 90 4
10 -39 -46 -71 11 71 109 -39
43 -57 -33 103 -4 68 12 -36
74 -16 -127 -35 8 -37 -21 -44
-77 -12 -42 40 26 -18 66 -51
-1 79 32 45 20 -46 -12 -56
00000000: cfcc f3f3 49b3 3a72 f6c6 1dcf d5ba e3e2
00000010: 06b8 0711 bdba f1d5 d5ba e527 f608 21c1
00000020: 4d58 4da7 1e81 ae5b f1cb 4b57 2c3a 57d0
00000030: 15d9 6889 ba12 9afb f1cb ffe6 5acf c60e
00000040: 004e 56bb bbbf 1917 e2ce 4df6 0529 f735
00000050: c952 1ea8 ecaf 0a39 0d1d 1f1d 48eb fb48
00000060: a722 62b4 030d 2d4d d03d 1b14 14f8 da33
00000070: c32e 679f 37fc f204 13dd 595d ffcf 5223
00000080: 1409 e6ef fd1a f27f 9853 75c8 025d c41b
00000090: e804 ba1f fee8 ea03 372b 0fc5 dcd0 3ad9
000000a0: e45c 455f e32b 7a49 1d05 a429 f52b da29
000000b0: e61a fa38 e7cf 6641 0600 f2e5 2d0a 4dce
000000c0: d1f5 f020 ed5c 7a2a bbce 020f c23a 3a12
000000d0: c20d 1778 44cf 5a04 0ad9 d2b9 0b47 6dd9
000000e0: 2bc7 df67 fc44 0cdc 4af0 81dd 08db ebd4
000000f0: b3f4 d628 1aee 42cd ff4f 202d 14d2 f4c8

std.constant5 i1 [32, 3, 3, 32]
68 49 -44 -3 -102 106 18 -14
-92 -36 0 -33 97 -19 79 1
95 100 -49 -65 -19 20 -87 -41
-19 22 -26 68 -60 52 111 69
-80 -70 40 -7 -96 -50 30 -10
-51 -64 -6 -19 34 4 -14 50
86 29 0 -33 -49 35 -12 55
-6 14 88 24 20 39 59 -93
-118 -81 -89 -82 11 -31 -38 34
37 64 -12 -71 8 79 -31 19
-54 -26 -8 37 -59 73 27 -41
-51 -50 -79 -23 29 25 56 55
-83 -44 38 117 -92 7 -70 87
29 -74 -8 -36 -22 92 -1 80
-27 106 -19 97 53 32 75 115
-63 32 124 -30 14 123 112 89
-84 -99 77 94 -42 12 21 28
-38 16 49 71 29 -8 34 66
-49 -73 93 37 21 -21 84 78
-8 7 -16 -7 -71 84 -63 -28
-115 -110 -90 -21 -86 -95 -47 -97
61 26 -39 76 -7 -32 12 -39
-16 -90 73 70 -52 63 106 -82
-111 -29 -22 58 -13 -100 55 37
70 77 81 25 -65 34 40 8
-84 -1 14 -48 14 71 68 7
118 -68 116 -2 102 -21 51 33
42 -29 72 -40 -4 53 47 22
-94 -87 -28 -42 -112 -72 54 56
-16 -100 -103 17 -119 92 -84 -21
-7 22 -58 58 54 -65 -37 92
-81 -21 49 4 41 -21 -77 0
00000000: 4431 d4fd 9a6a 12f2 a4dc 00df 61ed 4f01
00000010: 5f64 cfbf ed14 a9d7 ed16 e644 c434 6f45
00000020: b0ba 28f9 a0ce 1ef6 cdc0 faed 2204 f232
00000030: 561d 00df cf23 f437 fa0e 5818 1427 3ba3
00000040: 8aaf a7ae 0be1 da22 2540 f4b9 084f e113
00000050: cae6 f825 c549 1bd7 cdce b1e9 1d19 3837
00000060: add4 2675 a407 ba57 1db6 f8dc ea5c ff50
00000070: e56a ed61 3520 4b73 c120 7ce2 0e7b 7059
00000080: ac9d 4d5e d60c 151c da10 3147 1df8 2242
00000090: cfb7 5d25 15eb 544e f807 f0f9 b954 c1e4
000000a0: 8d92 a6eb aaa1 d19f 3d1a d94c f9e0 0cd9
000000b0: f0a6 4946 cc3f 6aae 91e3 ea3a f39c 3725
000000c0: 464d 5119 bf22 2808 acff 0ed0 0e47 4407
000000d0: 76bc 74fe 66eb 3321 2ae3 48d8 fc35 2f16
000000e0: a2a9 e4d6 90b8 3638 f09c 9911 895c aceb
000000f0: f916 c63a 36bf db5c afeb 3104 29eb b300

std.constant6 i1 [32, 3, 3, 32]
-34 37 49 69 -57 -29 -30 46
-38 24 -22 78 75 1 86 -14
26 -127 39 -51 8 8 -94 7
26 -99 38 -14 -17 17 -6 33
16 -10 -5 -60 18 46 13 73
56 102 -65 -15 58 -4 12 -43
70 -92 71 0 -92 12 12 -20
62 -120 64 -9 5 -50 79 80
-28 8 39 7 49 -63 -52 -30
-3 -71 -42 56 -80 -107 38 11
25 -9 -19 -17 -69 -28 -2 86
76 52 52 -50 65 14 -13 33
45 -59 47 13 -43 -12 -99 122
-10 90 -19 21 23 -17 38 -29
54 -13 66 -23 79 -57 -19 23
47 46 -36 -41 36 -72 -61 66
104 -60 65 -5 -65 -68 -92 85
-64 -49 -82 86 -48 38 45 76
39 -109 60 -51 78 -23 41 57
54 -53 81 -1 22 -75 16 33
-39 -96 8 30 -74 -35 -83 117
-67 14 27 94 -37 -39 -1 95
25 -15 1 4 53 -105 -44 -1
-33 20 76 -33 4 42 -16 -4
65 -84 -4 -82 -90 5 0 60
-8 -29 -65 120 -58 19 -70 103
58 22 -69 -9 -46 62 41 49
37 70 -42 -43 38 -24 -34 2
-21 -77 45 -97 40 16 -91 -37
-42 -67 25 28 -62 -52 57 91
-44 39 9 -18 97 54 -30 -82
55 -7 21 2 1 -37 -59 -68
00000000: de25 3145 c7e3 e22e da18 ea4e 4b01 56f2
00000010: 1a81 27cd 0808 a207 1a9d 26f2 ef11 fa21
00000020: 10f6 fbc4 122e 0d49 3866 bff1 3afc 0cd5
00000030: 46a4 4700 a40c 0cec 3e88 40f7 05ce 4f50
00000040: e408 2707 31c1 cce2 fdb9 d638 b095 260b
00000050: 19f7 edef bbe4 fe56 4c34 34ce 410e f321
00000060: 2dc5 2f0d d5f4 9d7a f65a ed15 17ef 26e3
00000070: 36f3 42e9 4fc7 ed17 2f2e dcd7 24b8 c342
00000080: 68c4 41fb bfbc a455 c0cf ae56 d026 2d4c
00000090: 2793 3ccd 4ee9 2939 36cb 51ff 16b5 1021
000000a0: d9a0 081e b6dd ad75 bd0e 1b5e dbd9 ff5f
000000b0: 19f1 0104 3597 d4ff df14 4cdf 042a f0fc
000000c0: 41ac fcae a605 003c f8e3 bf78 c613 ba67
000000d0: 3a16 bbf7 d23e 2931 2546 d6d5 26e8 de02
000000e0: ebb3 2d9f 2810 a5db d6bd 191c c2cc 395b
000000f0: d427 09ee 6136 e2ae 37f9 1502 01db c5bc

std.constant7 i1 [32, 3, 3, 32]
18 56 -75 -79 42 39 -77 -44
-56 -45 -67 98 22 76 15 -11
-54 -28 -12 82 3 -17 -35 37
33 66 64 66 -45 -21 56 2
-52 -46 95 -33 -48 -46 -77 41
-38 -75 -17 -6 17 59 -52 -8
30 9 62 73 20 25 -110 34
-3 40 -88 65 13 -1 -44 85
105 -60 76 -41 -43 7 31 -83
-68 -122 -5 -25 -3 41 -74 -12
17 -22 89 -79 44 -19 4 21
-95 34 10 -13 49 -22 28 103
-66 -83 33 70 86 27 96 -5
-81 -73 -18 5 -67 -2 60 21
-18 0 54 -53 34 -35 -5 -3
-38 -95 31 -4 -21 -106 67 -41
21 -45 -73 -87 -91 28 58 85
-17 24 -50 48 -70 -81 -4 -18
-67 5 29 50 28 -57 -24 54
28 -30 5 -58 -21 1 -45 2
6 -38 48 38 -73 58 -39 85
61 1 8 -59 84 45 44 24
51 50 127 -16 66 -64 16 86
-22 -20 59 37 98 2 -60 51
-72 -38 40 -32 -56 48 71 23
10 73 -31 86 1 100 89 82
34 82 20 -4 -81 -13 -63 21
45 -57 77 -35 37 49 12 -76
3 36 1 -23 1 39 -76 7
-14 6 4 49 -90 55 -61 66
22 -62 -55 -65 -47 3 -65 35
12 -53 18 -41 38 35 34 -32
00000000: 1238 b5b1 2a27 b3d4 c8d3 bd62 164c 0ff5
00000010: cae4 f452 03ef dd25 2142 4042 d3eb 3802
00000020: ccd2 5fdf d0d2 b329 dab5 effa 113b ccf8
00000030: 1e09 3e49 1419 9222 fd28 a841 0dff d455
00000040: 69c4 4cd7 d507 1fad bc86 fbe7 fd29 b6f4
00000050: 11ea 59b1 2ced 0415 a122 0af3 31ea 1c67
00000060: bead 2146 561b 60fb afb7 ee05 bdfe 3c15
00000070: ee00 36cb 22dd fbfd daa1 1ffc eb96 43d7
00000080: 15d3 b7a9 a51c 3a55 ef18 ce30 baaf fcee
00000090: bd05 1d32 1cc7 e836 1ce2 05c6 eb01 d302
000000a0: 06da 3026 b73a d955 3d01 08c5 542d 2c18
000000b0: 3332 7ff0 42c0 1056 eaec 3b25 6202 c433
000000c0: b8da 28e0 c830 4717 0a49 e156 0164 5952
000000d0: 2252 14fc aff3 c115 2dc7 4ddd 2531 0cb4
000000e0: 0324 01e9 0127 b407 f206 0431 a637 c342
000000f0: 16c2 c9bf d103 bf23 0ccb 12d7 2623 22e0
