ml/model_qat.tflite (tflite, 64816 bytes, 14 tensors)

dense_1/bias f4 [2]
00000000: 0787 b63c a5e6 bcbc
0.022281183 -0.023059199

dense/bias f4 [128]
00000000: 8459 16bc 20e7 ce3c c591 4cbc 0b89 4dbc
00000010: 22b2 0e3d 93fd 863b 60c7 6c39 0347 a8bc
00000020: 8dc5 97bc 0000 0000 efee 3abc 0058 b43c
00000030: 6d7e e4ba b545 873c 5539 e6bc f614 16bc
00000040: 0000 0000 0000 0000 a2cf 6abc 368a c1bc
00000050: 4c26 02bc 5880 bcbc ea0b b23c 5736 53bc
00000060: 4ffa a73c f029 7b3c 8106 11bb 9b02 c2bc
00000070: 25a8 a3bb d3e0 f63b d767 653c 6d17 b63c
00000080: 764a f2bc 0000 0000 c1bd 013d 3c62 b0bc
00000090: 3258 913c 15b4 05bd 146d 89bc 49e5 d3bc
000000a0: 5005 21bc bd74 bebc 06ac c83c 0000 0000
000000b0: 0000 0000 dcce 443d 3cfa d4bc ecb3 033d
000000c0: dbc4 153d 8657 b73c 4f26 04bc 0000 0000
000000d0: 4b8d b63c efb3 8d3c 20f9 ae3c 9002 9bbb
000000e0: ecde ed3a f860 ab3b 0d5d aebc 0c16 b03c
000000f0: 0000 0000 c80d 1cbb 3321 91bc d42f 073d
00000100: 46b7 62bb 3817 a9ba 0e9a 95bc 31b8 b6bc
00000110: 9778 b9bc 1540 3dbc 0000 0000 a994 a23c
00000120: 6a04 e73c 48ab f73c af50 9fbc f701 a1bc
00000130: 3c05 643a 307b c13c 40c7 bbbc 0000 0000
00000140: e4af 90bc 48b0 c739 0000 0000 7244 283c
00000150: 0000 0000 2990 cebc 0223 cfbc d3bc 7dbc
00000160: 6b19 60bc a46e 17bd 109b eb3c 8e97 c5bc
00000170: ab72 dabc 30a5 b93c 2e34 453c 2a0d 9bbc
00000180: fbbd fd3c 5952 7fbc 30c4 8bbc b80a 063c
00000190: 0000 0000 80a8 bbbc 3581 e5bc d575 8c3c
000001a0: 4d61 5fbc 5151 523b cf97 b43c 3a08 9ebc
000001b0: 8498 e4bb 0c5a 4ebc 1758 1b3d f7de 2a3b
000001c0: ab14 1dbd b5fb 06bc 3ea2 b23c 65b7 6abb
000001d0: 0000 0000 7f4b 883c 66c8 8fbb 9517 03bb
000001e0: 1470 123d 144d 9a3c 0000 0000 96c7 cb3a
000001f0: 469f c73c d645 683c 9297 733b 0000 0000
-0.009176616 0.025256693 -0.012485926 -0.012544881 0.03483785 0.004119584 0.00022580987 -0.020541674
-0.018526817 0.0 -0.011409505 0.022014618 -0.0017432697 0.016512731 -0.02810351 -0.009160271
0.0 0.0 -0.01433173 -0.023625474 -0.007943701 -0.023010418 0.021734197 -0.012891374
0.020505099 0.015329823 -0.002212912 -0.023682883 -0.0049944096 0.0075341254 0.014001808 0.022227967
-0.029576521 0.0 0.031675104 -0.021531217 0.01774225 -0.032642443 -0.016775645 -0.025866168
-0.009827927 -0.023249025 0.02449609 0.0 0.0 0.04804884 -0.025998227 0.03215401
0.03656469 0.022380602 -0.008065774 0.0 0.02228417 0.017297713 0.021359026 -0.00473053
0.0018148101 0.0052300654 -0.021284604 0.021494888 0.0 -0.0023811925 -0.017716026 0.033004597
-0.0034594103 -0.0012900596 -0.018261936 -0.022304626 -0.02264051 -0.011550923 0.0 0.019846277
0.028200347 0.03023304 -0.019447653 -0.019654257 0.000869829 0.02361831 -0.022922158 0.0
-0.017661996 0.00038087578 0.0 0.010270225 0.0 -0.025215225 -0.025285248 -0.015486914
-0.013677935 -0.03697075 0.028760463 -0.024120118 -0.026666006 0.022661775 0.012036366 -0.018927176
0.030974379 -0.015583598 -0.017061323 0.0081812665 0.0 -0.022907495 -0.028015712 0.01714603
-0.013634038 0.0032091925 0.022045044 -0.019291032 -0.006976189 -0.012594711 0.037925806 0.0026072839
-0.03834979 -0.008238723 0.021805879 -0.0035814878 0.0 0.016637562 -0.004387903 -0.002000307
0.035751417 0.018835582 0.0 0.0015547152 0.02436794 0.014176806 0.00371692 0.0

conv2d_4/bias f4 [32]
00000000: f53f 73bc 6de7 b8bb d4eb 083d 864d ab3c
00000010: 4a6a 31bc 47cb c4bb 19f1 a9bc fe39 4abc
00000020: 7445 1b3c 749f 82bb 9f1c 2d3c 25a6 893c
00000030: 8ff0 70bc cf61 b5bc 2450 93bb cbda 3ebc
00000040: f4d1 0e3a 75e5 35bb 9019 2cbc 00ca eebb
00000050: 7bb4 81bc df16 bc3c a516 c43c 5148 ab3c
00000060: 5b8b 83bc ec7f 34bc cc3a 783b d487 acbc
00000070: 96eb 893c a214 bd3b 5fcd d33c 64dc 82bc
-0.0148467915 -0.0056428225 0.03342803 0.02091099 -0.010828564 -0.006005678 -0.020744847 -0.012342928
0.009477008 -0.0039862934 0.010565906 0.016802857 -0.014705791 -0.022141365 -0.0044956375 -0.011648844
0.00054481556 -0.0027755175 -0.010504141 -0.007287264 -0.01583313 0.022960125 0.023936579 0.020908507
-0.01605766 -0.011016827 0.0037876843 -0.021060862 0.016835969 0.005770282 0.025854765 -0.015974231

conv2d_3/bias f4 [32]
00000000: 7aa5 5fbc aac4 d1bc 6601 e1bb ce1d b9bc
00000010: c38d 10bc 5e69 afbc 4fa5 15bc 8247 163c
00000020: dfc6 e23b 81a9 fb3c 6157 a3bc 25f1 bfbb
00000030: 0ef7 57bc 9c98 27bc c98f 063b e3a3 f7bc
00000040: 96e3 4abd 3566 133c bc6c c1bb b210 5cbc
00000050: c5e0 75bc e90e d5bb b27d e43c f077 bdbc
00000060: 4641 08bd 8731 adbb 6082 92bc a755 cabc
00000070: c185 88bc 4663 0dbb acf7 b33c c51e 423c
-0.0136502925 -0.025606472 -0.006866622 -0.02259722 -0.008822861 -0.021412548 -0.009133651 0.009172322
0.00692068 0.030720474 -0.019939126 -0.005857604 -0.013181461 -0.010229256 0.002053248 -0.030229514
-0.04953345 0.008996536 -0.0059028547 -0.013431715 -0.0150072025 -0.0065020216 0.027891967 -0.02312848
-0.033265375 -0.005285445 -0.017884433 -0.024699045 -0.016665341 -0.0021574064 0.021968685 0.011848156

conv2d_2/bias f4 [32]
00000000: 34d6 70bc dbeb bbbc 5fb3 c5bc 7eb5 353c
00000010: 6e46 9a3c 58da 713a ce07 95ba 645d 0f3b
00000020: 85db 853c c928 92bb 313b fb3b 3419 323a
00000030: 273f 983b b08c 013a 6139 9a3b baa3 00bc
00000040: 806b b0bc d2a4 2ebb 401c 00bd 9287 3d3b
00000050: d1ea a2bb 4e25 583c d409 ffbb 13df ffbb
00000060: 753f 2cbc 9692 c83c 6831 ba3c b70d e63b
00000070: 5e13 73ba 3202 80bc 0452 dc3a 2dfa ea3b
-0.0146995075 -0.022939613 -0.024133382 0.011090634 0.018832412 0.0009225956 -0.0011370124 0.0021875734
0.016340027 -0.0044604284 0.0076669683 0.00067939167 0.0046462 0.00049419235 0.004706547 -0.007851535
-0.021535635 -0.0026648534 -0.03127694 0.0028919918 -0.00497184 0.013192488 -0.007783154 -0.007808575
-0.010513176 0.02448396 0.022728637 0.007020678 -0.00092726003 -0.015626047 0.001680911 0.0071709366

conv2d_1/bias f4 [32]
00000000: 4d14 393c f418 103c 9d09 073c bf90 a5bb
00000010: 2e8c 4bbb 28a4 0c3c e75d 8f3c a5de bdba
00000020: 7d6e a03c 6452 803b 3b28 733c 485c a13c
00000030: 4012 363c 6898 02bd 6230 273c 2375 893c
00000040: b1fb bf3b 4097 bd3c bec0 4d3a 7331 f43c
00000050: d1d6 05bc 43b0 5c3c f1b9 473c 4a28 67bc
00000060: c54a c1bb 7c83 2abc 855c 013b 2116 6e3b
00000070: 3baa 833c 4636 edbb c77f 16bc fb55 b2bc
0.011296344 0.008795012 0.008242038 -0.0050526555 -0.0031058895 0.00858406 0.01750083 -0.0014485909
0.019583935 0.0039160717 0.014841135 0.019697323 0.01111275 -0.031883627 0.010204406 0.016779488
0.0058588614 0.02314341 0.000784885 0.029808735 -0.008168892 0.013469758 0.012190328 -0.014108727
-0.005898806 -0.010407325 0.0019738984 0.0036329108 0.016072383 -0.007239136 -0.009185738 -0.021769514

conv2d/bias f4 [16]
00000000: e8b0 b639 304c babc 34c4 0e3c aa61 b53c
00000010: c4f9 223c 65b5 b43c 73cf d83c e30e e8bc
00000020: e30b c8bb dadd 8a3c baf1 af3c 8bcc 28bb
00000030: 1c36 e038 1270 b03c 5996 a4bb 3896 1b3c
0.0003484555 -0.022741407 0.008713771 0.022141296 0.009947244 0.022059152 0.026466107 -0.028327411
-0.0061049326 0.01695149 0.021477569 -0.0025756683 0.00010691231 0.021537814 -0.0050228056 0.009496264

std.constant1 f4 [128, 32]
00000000: b71f 253e 9cc1 06be 4ce6 3bbe 0283 30be
00000010: 7ca7 88bd 865e d83d b81f 25be 5859 ebbd
00000020: 4ea2 1bbe ca0a 943d dcf0 72bd 126e 1fbe
00000030: def0 f2bd 11b2 3f3e 792f 493e b063 c5bc
00000040: 126e 9f3d 891a 383e d2c1 e33d 219d 2e3e
00000050: 11b2 3f3e f0f0 723c 6688 fa3d 782f c9bd
00000060: a034 36bc b863 c53c 7beb 283e 9805 27bd
00000070: 80d6 17bc 6b00 3a3e 88d6 973c c54e 343e
00000080: f297 41be 2954 febd 229d ae3d 00f1 723b
00000090: f70f 013e d0c1 63bd 249d 2e3d f297 c13d
000000a0: 053f 103e 6688 fa3d 4073 8cbd 209d aebd
000000b0: 5f8d 0abe 126e 9fbd 2ccc 3dbd 1e25 ef3d
000000c0: a9f0 153e 02c7 d03d e0f0 f23b 2359 0e3e
000000d0: d0c1 e3bc 4173 0c3e 4273 8c3d 0ef6 dfbd
000000e0: 00f1 723b 4ce6 3bbe 0283 30be b863 c53c
000000f0: 3cfb 4cbd b81f 25be 4b2a 5c3e b663 c53d
00000100: a834 36bd 043f 103d c092 54bc b663 c53d
00000110: 6688 fa3d 4a2a dc3d e568 323e d37d 43be
00000120: 0ef6 df3d c492 543d e8f0 f23c 5859 ebbd
00000130: 2ecc bdbd d1c1 e3bd 0ef6 df3d b863 c53c
00000140: c492 54bd b463 453d 4de6 3b3e 4273 8c3d
00000150: e724 123e 5ed1 aa3d e0f0 72bc 865e 58be
00000160: 2a54 fe3d d739 233e 3fb7 2c3e b463 453d
00000170: 0000 0000 4273 8c3d 4073 0cbe d639 a33d
00000180: 00f1 f23a 00f1 f23a ca0a 943d c092 54bc
00000190: 126e 9f3d 126e 9fbd 7beb 28be 7beb 28be
000001a0: 4a2a dcbd 6a00 3abe 865e d83d 891a 38be
000001b0: 8cd6 173d 9a05 a73d 88d6 97bc e724 123e
000001c0: a834 b6bc b463 453d 3eb7 2cbe 2ccc 3d3d
000001d0: 5859 ebbd 9905 27be 948d e7bd aaf0 15be
000001e0: 10b2 3fbe a634 b63d d9f5 023e f40f 013d
000001f0: 4273 8c3d 5cd1 2abe 00f1 723b 4a2a dcbd
00000200: e0f0 f23b 2259 0ebe 782f c9bd 7da7 08be
00000210: f197 413e 4073 8cbd e0f0 f2bb 4ce6 3bbe
00000220: 02c7 d03d e1ac 523e 0000 0000 3efb cc3d
00000230: 8bd6 173e f60f 81bd bbdb 043e b71f 253e
00000240: 5859 6bbd b463 45bd e568 323e b463 c5bd
00000250: e624 12be e568 323e a578 563e 126e 9f3d
00000260: 6688 fa3d f0f0 723c f297 c1bd 9a05 a73d
00000270: 4073 0cbe 6488 7a3d 0383 303e 3cfb 4cbd
00000280: dcf0 72bd e668 b23d 968d e73d c292 d4bd
00000290: 80f0 f2ba b81f 25be b463 453d 8bd6 173e
000002a0: 5859 ebbd 8bd6 173e 8ad6 97bd 2359 0e3e
000002b0: 043f 10be f553 213e c092 54bc 4a2a dc3d
000002c0: 88d6 973c 5b15 4b3e 792f 493e a634 b63d
000002d0: 891a 383e 9cc1 06be d8f5 02be 00c7 d0bd
000002e0: 4c2a 5c3d ac34 363d 4073 0cbe 2259 0ebe
000002f0: b463 45bd 5ed1 aa3d 9cc1 06be 8cd6 173d
00000300: f297 41be 948d e7bd 2ccc 3dbd d639 23be
00000310: 8ad6 97bd 209d 2ebe badb 843d 7ea7 883d
00000320: 2359 0e3e 126e 9f3d e624 12be 209d aebd
00000330: 7ca7 88bd 209d 2ebd 0383 303e 5f8d 0abe
00000340: 7da7 08be 0ef6 dfbd 229d ae3d 3fb7 2c3e
00000350: 2ecc 3dbe d9f5 023e 9805 a73c 9a05 a73d
00000360: badb 04be e0f0 f2bb 9805 a7bc f553 213e
00000370: 891a 38be 5859 6bbd e468 b2bd 6a00 3abe
00000380: 063f 903d b81f 25be 8cd6 173d 5cd1 2abe
00000390: 3cfb 4cbd 10b2 3fbe 7da7 083e 3cfb 4c3d
000003a0: ac34 363d 053f 103e 8cd6 17bd b034 363c
000003b0: 209d aebd 126e 9fbd 792f 493e 5a15 4bbe
000003c0: 88d6 973c 3dfb 4c3e 4073 8cbd 8bd6 173e
000003d0: badb 04be 4ce6 3bbe 3fb7 2c3e 2359 0e3e
000003e0: b81f 25be d639 a3bd 2a54 fe3d c092 54bc
000003f0: a034 b6bb 2954 febd b563 45be ca0a 943d
0.1612538 -0.13159794 -0.1834957 -0.17237476 -0.0667257 0.10564904 -0.16125381 -0.1149165
-0.15198633 0.0722862 -0.059311733 -0.15569332 -0.11862348 0.1872027 0.19647016 -0.024095386
0.07784666 0.17978872 0.11120953 0.17052127 0.1872027 0.014827952 0.12233047 -0.09823507
-0.011120945 0.024095401 0.16496079 -0.04077682 -0.009267449 0.18164222 0.018534914 0.17608173
-0.18905619 -0.12418396 0.085260645 0.0037069917 0.12603746 -0.055604756 0.04263033 0.094528094
0.1408654 0.12233047 -0.0685792 -0.08526063 -0.13530491 -0.07784666 -0.04633729 0.116770014
0.14642586 0.10194208 0.0074139684 0.1390119 -0.027802378 0.13715841 0.06857921 -0.10935603
0.0037069917 -0.1834957 -0.17237476 0.024095401 -0.050044283 -0.16125381 0.21500508 0.09638159
-0.04448381 0.035216346 -0.012974441 0.09638159 0.12233047 0.107502535 0.17422827 -0.19090967
0.10935603 0.05189778 0.029655889 -0.1149165 -0.0926746 -0.11120952 0.10935603 0.024095401
-0.05189778 0.048190787 0.18349572 0.06857921 0.1427189 0.08340715 -0.014827937 -0.21129808
0.12418397 0.15940033 0.16866778 0.048190787 0.0 0.06857921 -0.1371584 0.07970016
0.0018534958 0.0018534958 0.0722862 -0.012974441 0.07784666 -0.07784666 -0.16496079 -0.16496079
-0.107502535 -0.1816422 0.10564904 -0.17978872 0.037069842 0.08155365 -0.018534914 0.1427189
-0.022241905 0.048190787 -0.16866776 0.04633729 -0.1149165 -0.16310729 -0.11306301 -0.14642587
-0.18720269 0.08896761 0.12789096 0.031509355 0.06857921 -0.16681427 0.0037069917 -0.107502535
0.0074139684 -0.13901189 -0.09823507 -0.13345142 0.18905617 -0.0685792 -0.0074139684 -0.1834957
0.10194208 0.2057376 0.0 0.10008858 0.14827935 -0.063018724 0.12974446 0.1612538
-0.05745825 -0.048190787 0.17422827 -0.096381575 -0.14271888 0.17422827 0.2094446 0.07784666
0.12233047 0.014827952 -0.094528094 0.08155365 -0.1371584 0.06116523 0.17237477 -0.050044283
-0.059311733 0.08711414 0.11306302 -0.10379554 -0.0018534809 -0.16125381 0.048190787 0.14827935
-0.1149165 0.14827935 -0.07413967 0.1390119 -0.14086539 0.15754683 -0.012974441 0.107502535
0.018534914 0.19832365 0.19647016 0.08896761 0.17978872 -0.13159794 -0.12789094 -0.10194206
0.053751275 0.044483826 -0.1371584 -0.13901189 -0.048190787 0.08340715 -0.13159794 0.037069842
-0.18905619 -0.11306301 -0.04633729 -0.15940031 -0.07413967 -0.17052126 0.06487222 0.066725716
0.1390119 0.07784666 -0.14271888 -0.08526063 -0.0667257 -0.042630315 0.17237477 -0.13530491
-0.13345142 -0.10935603 0.085260645 0.16866778 -0.1853492 0.12789096 0.02038841 0.08155365
-0.12974444 -0.0074139684 -0.02038841 0.15754683 -0.17978872 -0.05745825 -0.087114125 -0.1816422
0.07043271 -0.16125381 0.037069842 -0.16681427 -0.050044283 -0.18720269 0.13345142 0.050044283
0.044483826 0.1408654 -0.037069842 0.01112096 -0.08526063 -0.07784666 0.19647016 -0.19832364
0.018534914 0.20017715 -0.0685792 0.14827935 -0.12974444 -0.1834957 0.16866778 0.1390119
-0.16125381 -0.07970016 0.12418397 -0.012974441 -0.0055604726 -0.12418396 -0.19276316 0.0722862

std.constant2 f4 [2, 128]
00000000: d6a2 f1bd b81a 233e 4017 213d f878 d93d
00000010: 3817 21bd d2a9 f5bd d2f7 0e3e 204f 413c
00000020: 9052 43be 9a44 3b3e 7c6e 53be 3225 293e
00000030: 9a44 3bbe 2033 b1bc ea86 e1bd f07f ddbd
00000040: ae28 2bbe 4409 19bd f086 e13c 341e a5bd
00000050: dc9b edbd 52f4 0cbe 006b d13d 60df 003d
00000060: 4809 193d d2f7 0e3e 50fb 903d 004f c1bb
00000070: 0464 cdbd d6a2 f1bd 62df 003e e88d 653e
00000080: 50fb 903d d2f7 0e3e 006b d13d 40df 00bb
00000090: 0e56 c5bd 50fb 903d 60df 00bd 104f c13c
000000a0: 3f10 1dbe 085d c9bd 3225 293e 1c41 39be
000000b0: 124f c1bd 46bb 7f3e 144f 413e 3025 a93d
000000c0: 747c 5b3e 124f c1bd 9f3d 37be dae9 06be
000000d0: fe6a d1bd 4409 993d d4a9 f53d 8660 4bbe
000000e0: 6491 67be 8860 4b3e 62df 80bd c805 173e
000000f0: a436 333e 64df 803d d0f7 0ebe 4cfb 10bd
00000100: 9a44 3bbe 3a17 a1bd ccfe 12be 80df 003b
00000110: 58ed 083e 3a17 a1bd f07f ddbd fa71 553e
00000120: 7e6e 533e 104f 41bc 223a 35be 62df 003e
00000130: 2a2c adbd d2f7 0e3e fe6a d1bd 3025 29be
00000140: 1c41 39be f578 59be 9a44 3bbe c8b7 fdbd
00000150: 52f4 8cbd e88d e53d 3033 b13c 3a17 21be
00000160: e68d 65be f478 59bd 0a5d 493e f86a d1bc
00000170: c20c 1b3e ea86 e1bd 4efb 103e f07f ddbd
00000180: e88d 653e 4409 193e b81a 23be 54f4 0c3e
00000190: 3025 29bd dc9b edbd d4a2 71bd 4efb 90bd
000001a0: 58ed 083d 2b2c 2dbe 6491 673e fc6a 51bd
000001b0: f07f ddbd 5ce6 04be fa71 553e f07f dd3d
000001c0: dae9 06be fc6a 51bd e494 e93d 4409 193e
000001d0: be13 1f3e 4efb 103e 104f 41bc ff6a 51be
000001e0: 64df 803d e886 61bd 223a 35be 5ee6 043e
000001f0: 40df 00bb 104f 41bd 3225 293e 4409 99bd
00000200: 381e a53d 3817 21bd 4010 9d3d 3025 29bd
00000210: 9a44 3bbe 3025 29bd 1056 c53d f678 593e
00000220: c20c 1b3e fa71 d5bd be13 1f3e 5f98 6bbe
00000230: 7e6e 533e ea86 e1bd 58ed 083e 2433 31bd
00000240: b81a 233e f878 d93d ec86 e13d 004f c1bb
00000250: 4c02 953d 2633 b1bd 2433 31bd 4a02 153e
00000260: 60df 00bd 52f4 0cbe 404f c13b 8267 4f3e
00000270: 9a44 3bbe 4efb 10be d5f0 0abe 58ed 083d
00000280: e886 e1bc d2a9 f5bd 5ce6 84bd f878 d93d
00000290: 52f4 0cbe 1e41 393e e086 61bc 2833 313e
000002a0: 104f c13c c805 173e 2a2c adbd 60df 00bc
000002b0: e494 e93d f478 59bd 0464 4d3e f578 59be
000002c0: 4409 19bd 3f10 1dbe d0a2 f1bc 0e56 45be
000002d0: 9a44 3bbe 4809 193d 40df 00bb 58ed 08bd
000002e0: 4efb 103e 095d 49be c805 173e 3817 a1bc
000002f0: 4409 99bd 58ed 08bd 1848 3d3e bc13 1fbe
00000300: e68d e5bd 6e83 5f3e 64df 803d e0e2 023e
00000310: 006b 513e d2f7 0e3e 1056 c53d b81a 23be
00000320: 954b 3fbe 4802 95bd fe6a d1bd b81a 233e
00000330: 52f4 0cbe 085d 493d 1e41 393e 1848 3d3e
00000340: 9f3d 37be fa71 553e 5ce6 843d f07f dd3d
00000350: 4efb 10be 7875 573e 5ce6 843d 4010 9d3d
00000360: 2b2c 2dbe 4017 213c 8167 4fbe 58ed 883d
00000370: 8c59 473e 1848 3dbe 144f c13d 3017 21bc
00000380: 9a44 3b3e d0a2 f1bc dc9b ed3d fc71 d53d
00000390: 52f4 0cbe 104f c1bc a436 333e 4802 95bd
000003a0: 3c17 a13d 351e 25be 4efb 90bd 50fb 903d
000003b0: 3a17 a1bd 4010 1d3e 3817 a1bc a03d 373e
000003c0: fc6a 51bd 006b 513e dfe2 02be c805 173e
000003d0: 9a44 3bbe bc13 1fbe 3017 21bc 60df 803c
000003e0: c8b7 7dbe 404f c13b 52f4 0cbe 8860 4b3e
000003f0: 3a17 21be 6098 6b3e 4409 19bd 52f4 8cbd
-0.117986366 0.15928161 0.039328814 0.10618776 -0.039328784 -0.11995281 0.13961723 0.01179865
-0.19074464 0.18287888 -0.20647615 0.16518095 -0.18287888 -0.021630824 -0.11012061 -0.10815418
-0.16714737 -0.037362352 0.027530164 -0.080624014 -0.116019934 -0.13765076 0.10225487 0.031463027
0.037362367 0.13961723 0.07079184 -0.00589931 -0.10028842 -0.117986366 0.12585214 0.22417414
0.07079184 0.13961723 0.10225487 -0.0019664317 -0.09635554 0.07079184 -0.031463027 0.02359727
-0.15338229 -0.098321974 0.16518095 -0.18091244 -0.094389096 0.24973783 0.18877822 0.08259046
0.21434194 -0.094389096 -0.178946 -0.13175145 -0.10225485 0.074724704 0.11995283 -0.1986104
-0.22614056 0.19861042 -0.06292607 0.14748299 0.17501312 0.062926084 -0.1396172 -0.035395905
-0.18287888 -0.07865758 -0.1435501 0.0019664466 0.1337179 -0.07865758 -0.10815418 0.2084426
0.20647618 -0.011798635 -0.17697957 0.12585214 -0.08455689 0.13961723 -0.10225485 -0.16518092
-0.18091244 -0.21237548 -0.18287888 -0.12388569 -0.06882538 0.11208707 0.021630853 -0.15731516
-0.22417411 -0.053093866 0.19664398 -0.025563702 0.15141585 -0.11012061 0.14158365 -0.10815418
0.22417414 0.14944941 -0.15928161 0.13765079 -0.04129523 -0.116019934 -0.058993176 -0.070791826
0.033429474 -0.1691138 0.22614056 -0.05112742 -0.10815418 -0.129785 0.2084426 0.10815418
-0.13175145 -0.05112742 0.11405352 0.14944941 0.15534875 0.14158365 -0.011798635 -0.20450972
0.062926084 -0.055060297 -0.17697957 0.12978503 -0.0019664317 -0.04719454 0.16518095 -0.074724704
0.080624044 -0.039328784 0.07669115 -0.04129523 -0.18287888 -0.04129523 0.09635556 0.21237549
0.15141585 -0.1042213 0.15534875 -0.23007344 0.20647618 -0.11012061 0.1337179 -0.043261662
0.15928161 0.10618776 0.110120624 -0.00589931 0.07275829 -0.08652334 -0.043261662 0.14551654
-0.031463027 -0.13765076 0.00589934 0.20254329 -0.18287888 -0.14158365 -0.13568433 0.033429474
-0.027530149 -0.11995281 -0.0648925 0.10618776 -0.13765076 0.18091246 -0.013765067 0.17304671
0.02359727 0.14748299 -0.08455689 -0.007865757 0.11405352 -0.053093866 0.20057684 -0.21237548
-0.037362352 -0.15338229 -0.02949658 -0.19271109 -0.18287888 0.037362367 -0.0019664317 -0.033429474
0.14158365 -0.19664396 0.14748299 -0.019664392 -0.074724704 -0.033429474 0.18484533 -0.15534872
-0.112087056 0.2182748 0.062926084 0.12781858 0.20450974 0.13961723 0.09635556 -0.15928161
-0.18681176 -0.07275826 -0.10225485 0.15928161 -0.13765076 0.049160987 0.18091246 0.18484533
-0.178946 0.2084426 0.0648925 0.10815418 -0.14158365 0.21040905 0.0648925 0.07669115
-0.1691138 0.009832203 -0.20254327 0.06685895 0.19467753 -0.18484533 0.09438911 -0.0098321885
0.18287888 -0.02949658 0.116019934 0.104221314 -0.13765076 -0.02359727 0.17501312 -0.07275826
0.0786576 -0.16124804 -0.070791826 0.07079184 -0.07865758 0.1533823 -0.019664392 0.17894602
-0.05112742 0.20450974 -0.12781857 0.14748299 -0.18287888 -0.15534872 -0.0098321885 0.015731514
-0.24777138 0.00589934 -0.13765076 0.19861042 -0.15731516 0.23007345 -0.037362352 -0.06882538

std.constant3 f4 [16, 3, 3, 3]
00000000: 6e3c 143e 0cf5 28be f4b6 e8bd 5477 f53d
00000010: 0c7c 073e 9204 193e e82c 24be e8a5 45bd
00000020: e7a5 45be 005d 273e 1006 4c3c 4866 d23d
00000030: 2425 2c3e 0006 4c3b f4c4 a5bd da94 223e
00000040: db86 e5bd 3847 f23c 927d 3abe a826 df3d
00000050: 0c6e 4abe 3c47 f23d 9004 193d dc1b 013e
00000060: 0ce7 6bbd e8b3 823d 4047 f2bc 93c6 8abd
00000070: 8232 d63d d836 d93c 1f92 3fbe bd48 0c3e
00000080: 1ee9 a23d 7be0 1c3e 0803 b53c bff1 283e
00000090: 7d89 39be 0603 b53d 9025 4d3d a0b9 81bd
000000a0: 6059 f13b 5c59 713d 5c59 713d 6eed a53d
000000b0: 0803 b53c 1548 e5bd b450 6bbd 87d3 133e
000000c0: e5ca 0d3e 7937 003e 34cf 10bd e773 2abe
000000d0: 6059 f13b 3978 2d3e 42b6 073e b095 1ebd
000000e0: c862 92bc 9154 ccbd 08a8 413e 1256 0f3e
000000f0: 00fa f33c 4c61 4f3d 402e 43bb dc81 383e
00000100: 0ce2 303e a4ad e1bd 846f 953d 98c8 2abd
00000110: 5eba e4bd b5cf 0dbe ae5b 2f3e 28e9 13be
00000120: 80fb b63d 18c7 67bd 3094 db3c 8235 26be
00000130: e82f 863c f888 9bbd 70dc 103e 3808 3abe
00000140: 98c8 aa3c 7298 96bd 1e93 863d de4f f03d
00000150: 64b8 f6bd 8269 23be b6cc 19be 2e64 933d
00000160: 51fe 143e 8a4a e0bd 2084 73bd fef8 04be
00000170: a7fb 0cbe f310 cdbd 00e2 59bd 3c35 20bd
00000180: 8169 233e 6fa0 2e3e 2093 063d ce7e e33d
00000190: f410 4d3d 3e35 20be 64c7 89bd 09d2 293e
000001a0: 7a79 d3bd d176 4b3e 9532 183e d06e 333c
000001b0: 4762 0b3e 00d7 bf3a a8d9 b3bc 36dc 27be
000001c0: 0be0 153e f959 32be 7edd a13d 0ce0 15bd
000001d0: 76d6 c2bd 36dc a73d b95f 173e a8d9 33be
000001e0: d2d5 c53d c2de 9b3d 4bda 30be 44d3 513d
000001f0: 27ce e9bd fcd1 57bd e2e3 03be 7ddd 213e
00000200: e0cc efbb 6ccf 633d bdd7 3c3e 60d8 39bd
00000210: ec62 08be 84e4 803d 2fd5 c8bd be1c 9e3d
00000220: 506a 46bc dd76 383e fcd0 52bd 81dd 44be
00000230: a4ea d5bd c835 02bd c482 8bbd 0f50 a4bd
00000240: 16b6 91bd f46a 65bd 1b69 083e b003 3abd
00000250: 6183 aabd 2faa 3e3e b869 27bd a89d ccbd
00000260: b5b6 303e c482 8bbd 3e38 fe3d 0e50 a43d
00000270: 5cd0 33bd 449e 6bbd 6ae9 973d 724f 853d
00000280: c482 8bbd 724f 853d c8b7 cb3c f347 f8bd
00000290: 0be3 2bbe b82e 65bd 48ea 00be 40fc bebc
000002a0: b8a5 7e3d e676 0a3e 5085 253d 8015 d23d
000002b0: be1c 273e 48fc 3e3d fcd0 5ebd b92e e5bd
000002c0: 9027 1f3e 2819 043e 80b7 cbba b0a5 febc
000002d0: ea11 2fbe b0a5 7ebc 849e 38bd 5220 4abe
000002e0: 7c7a 2d3e b0a5 7ebc 126c 92bd 146c 123d
000002f0: b0f8 1bbe 1700 f7bd 401d 61bd de9e ed3d
00000300: 2737 b2bd 401d e1bc e733 99bd 06bc d73d
00000310: 1322 0b3e e640 fd3d afd2 0f3e 8020 7a3c
00000320: 1600 f73d 2fd9 413e 17f3 12be d6fc dd3d
00000330: 47b2 0c3e cb89 46be 673a cbbd dc9e 6d3d
00000340: bf16 2fbe e633 993d 2366 2a3e 8013 96bc
00000350: 56f6 ab3d c016 2fbd 8b86 2dbe 1bc4 1a3e
00000360: fc4a f33d cf39 d9bd 209c 963c f8ea 373e
00000370: 180e c23d 8465 f03d 34d1 903d d8c7 2d3d
00000380: 7417 25be 8ff3 c4bd 4006 8b3c 3c78 363e
00000390: cbd9 1dbe 54f4 1abe a8cf e43d 5c3b 05bd
000003a0: cf39 d9bd 21b5 e7bd 7089 d0bc c692 33be
000003b0: d8c7 2d3e 229c 16be a05d b93b 9cc8 033e
000003c0: 8465 f03d 844c 9f3d dd0e 18be c8ca ec3c
000003d0: 188d 833d f02b b83d 5c7b d23d 4cba a73d
000003e0: 007b d2ba c4ca 6cbd 64d6 503e 80e7 4bbd
000003f0: f02b 383e 10a3 5fbd 693c fdbd a05e f33d
0.14476177 -0.16499728 -0.113630205 0.11985651 0.13230914 0.1494315 -0.16032755 -0.048253924
-0.19301568 0.1634407 0.012452617 0.10273415 0.16811043 0.0031131506 -0.080942065 0.15877095
-0.11207362 0.029574975 -0.18211964 0.10896045 -0.19768542 0.11829993 0.037357867 0.12608284
-0.05759339 0.06381971 -0.02957499 -0.06776156 0.10458852 0.02651541 -0.18708085 0.13699622
0.0795462 0.15320008 0.022096172 0.16498469 -0.18118854 0.08838467 0.05008465 -0.06334233
0.0073653907 0.05892311 0.05892311 0.08101927 0.022096172 -0.11195389 -0.05745001 0.1443616
0.1384693 0.12521161 -0.035353854 -0.16645776 0.0073653907 0.16940393 0.1325312 -0.038716972
-0.017869368 -0.09977067 0.18911755 0.13997677 0.029782295 0.0506299 -0.0029782206 0.18018287
0.1727373 -0.110194474 0.072966605 -0.041695207 -0.11168359 -0.13848765 0.17124817 -0.14444411
0.089346886 -0.056586355 0.02680406 -0.16231349 0.016380265 -0.07594484 0.1414659 -0.18167198
0.020847604 -0.073532954 0.06571029 0.117339835 -0.120468885 -0.15958217 -0.15019497 0.07196842
0.14550139 -0.10951717 -0.059452176 -0.12985608 -0.13767873 -0.100129984 -0.053194046 -0.03911327
0.15958215 0.17053388 0.032855153 0.111081704 0.050064996 -0.1564531 -0.06727484 0.16584028
-0.10325904 0.19869544 0.14863046 0.010951713 0.13611709 0.0014636219 -0.021954373 -0.16392598
0.14636247 -0.17417134 0.079035744 -0.03659062 -0.095135614 0.08196299 0.14782609 -0.17563498
0.096599236 0.07610847 -0.17270772 0.05122687 -0.114162736 -0.05269049 -0.12879899 0.15807147
-0.007318124 0.055617735 0.18441673 -0.045372367 -0.13318986 0.06293586 -0.098062865 0.07720326
-0.012110308 0.18014093 -0.051468834 -0.19225122 -0.10445145 -0.03178957 -0.06812051 -0.080230825
-0.07114808 -0.0560102 0.13321345 -0.045413673 -0.0832584 0.18619607 -0.040872306 -0.09991008
0.17257197 -0.06812051 0.12413071 0.08023082 -0.04389988 -0.05752398 0.07417567 0.065092936
-0.06812051 0.065092936 0.024867907 -0.12123098 -0.16785829 -0.055952758 -0.12589371 -0.023313642
0.06216976 0.13521919 0.04041034 0.10258007 0.16319558 0.046627313 -0.05439852 -0.11190552
0.15542436 0.12900221 -0.0015542358 -0.031084865 -0.17096677 -0.015542433 -0.045073047 -0.19738892
0.16941255 -0.015542433 -0.07149519 0.035747603 -0.15231586 -0.12060564 -0.054959536 0.11602567
-0.08701926 -0.027479768 -0.07480603 0.105339095 0.13587217 0.12365894 0.14045213 0.015266538
0.12060563 0.18930505 -0.14350544 0.1083924 0.13739882 -0.19388501 -0.09923249 0.05801283
-0.1709852 0.07480602 0.16640525 -0.018319845 0.08396594 -0.042746305 -0.16945855 0.15113871
0.118795365 -0.10606729 0.018384993 0.17960727 0.094753444 0.117381126 0.07071152 0.042426914
-0.16122228 -0.096167676 0.016970754 0.17819303 -0.15415113 -0.15132266 0.1117242 -0.032527313
-0.10606729 -0.113138445 -0.02545616 -0.17536458 0.16970766 -0.14707997 0.005656913 0.12869495
0.117381126 0.07778266 -0.1484942 0.028905287 0.06423396 0.089927554 0.10277435 0.0818983
-0.0016058385 -0.05781056 0.20394284 -0.049781322 0.17985511 -0.054598868 -0.12365038 0.11883283

std.constant4 i1 [32, 3, 3, 16]
00000000: 47a1 4507 ec25 4db2 df71 a5bb 25cf db2f
00000010: 514a ed2d 9cdc de36 f244 0e59 d81e bcf5
00000020: d005 b75e 33a0 1dd0 fc44 d7b3 4ba5 a936
00000030: 35e1 e24e d2e6 dcf5 19f6 87d8 df40 2d70
00000040: 134a 2806 f1b5 42d8 2dc4 ed46 ac03 3d60
00000050: 2304 b5f6 e3f5 c710 f4e0 e566 48ef cec4
00000060: 290e e625 ef43 264d fa0a 25af 07dd e8db
00000070: fc2a 0a58 bf14 1ca9 0a0c 974b e306 b906
00000080: 53fb cf7f b1c4 d1c9 eb43 2efb 173a ab15
00000090: 1fa6 ab07 bdd0 d33f ae09 7f09 463e 403c
000000a0: 0047 1000 4524 2bd8 1fc8 58d4 be38 4f43
000000b0: deae b4e9 371b 60db 5528 4510 e7ab e747
000000c0: ee07 1ea7 1248 4d18 b255 6cc3 17d6 b0d0
000000d0: ee1a c6e3 035b 31ca da20 672f f506 460f
000000e0: d440 a3d5 b248 66db f33d 2b40 fac4 ecb7
000000f0: 34ec a214 254a 0f2e 0dd8 283f 0ee7 093d
71 -95 69 7 -20 37 77 -78
-33 113 -91 -69 37 -49 -37 47
81 74 -19 45 -100 -36 -34 54
-14 68 14 89 -40 30 -68 -11
-48 5 -73 94 51 -96 29 -48
-4 68 -41 -77 75 -91 -87 54
53 -31 -30 78 -46 -26 -36 -11
25 -10 -121 -40 -33 64 45 112
19 74 40 6 -15 -75 66 -40
45 -60 -19 70 -84 3 61 96
35 4 -75 -10 -29 -11 -57 16
-12 -32 -27 102 72 -17 -50 -60
41 14 -26 37 -17 67 38 77
-6 10 37 -81 7 -35 -24 -37
-4 42 10 88 -65 20 28 -87
10 12 -105 75 -29 6 -71 6
83 -5 -49 127 -79 -60 -47 -55
-21 67 46 -5 23 58 -85 21
31 -90 -85 7 -67 -48 -45 63
-82 9 127 9 70 62 64 60
0 71 16 0 69 36 43 -40
31 -56 88 -44 -66 56 79 67
-34 -82 -76 -23 55 27 96 -37
85 40 69 16 -25 -85 -25 71
-18 7 30 -89 18 72 77 24
-78 85 108 -61 23 -42 -80 -48
-18 26 -58 -29 3 91 49 -54
-38 32 103 47 -11 6 70 15
-44 64 -93 -43 -78 72 102 -37
-13 61 43 64 -6 -60 -20 -73
52 -20 -94 20 37 74 15 46
13 -40 40 63 14 -25 9 61

std.constant5 i1 [32, 3, 3, 32]
00000000: 475c 54f3 d3d3 0e23 dea5 7155 afd5 ff30
00000010: d7e0 4dcf 2a47 f6d1 1e16 ef4c 5742 56f9
00000020: 410f bd38 b4ee 6041 3cd5 011c 3b0d 410b
00000030: edb7 3106 ba5f b7b3 36d2 bec5 4147 b606
00000040: ee1a abc3 3ceb e311 405d f3fd 4c53 34b0
00000050: f3f4 3f33 4026 4e52 58f2 c341 cc28 4de3
00000060: 0430 ec20 e213 dae6 c506 1f45 7fec 1b21
00000070: 356f efcd cc0b f01a 57e2 0050 d3b4 abc3
00000080: 1456 bde4 36b4 58d6 dac9 f53a 67be d1f2
00000090: deed 9f58 ac59 48c2 eccc f115 29d6 1b3a
000000a0: e01a e93e c844 4124 c74b 4a58 c217 3431
000000b0: d3de 48fb 2d1d 115c ef4b b3b2 dae7 d6e5
000000c0: cb67 cf27 ec61 4d31 3339 68d0 f527 d590
000000d0: 0518 c8f8 4511 cd56 affa d118 2615 9f0d
000000e0: bd29 620f c1e7 2fc2 c7ec 1d37 0adb 552e
000000f0: 263a c041 cb1d 31be 02ef 1417 c3db f1f2
71 92 84 -13 -45 -45 14 35
-34 -91 113 85 -81 -43 -1 48
-41 -32 77 -49 42 71 -10 -47
30 22 -17 76 87 66 86 -7
65 15 -67 56 -76 -18 96 65
60 -43 1 28 59 13 65 11
-19 -73 49 6 -70 95 -73 -77
54 -46 -66 -59 65 71 -74 6
-18 26 -85 -61 60 -21 -29 17
64 93 -13 -3 76 83 52 -80
-13 -12 63 51 64 38 78 82
88 -14 -61 65 -52 40 77 -29
4 48 -20 32 -30 19 -38 -26
-59 6 31 69 127 -20 27 33
53 111 -17 -51 -52 11 -16 26
87 -30 0 80 -45 -76 -85 -61
20 86 -67 -28 54 -76 88 -42
-38 -55 -11 58 103 -66 -47 -14
-34 -19 -97 88 -84 89 72 -62
-20 -52 -15 21 41 -42 27 58
-32 26 -23 62 -56 68 65 36
-57 75 74 88 -62 23 52 49
-45 -34 72 -5 45 29 17 92
-17 75 -77 -78 -38 -25 -42 -27
-53 103 -49 39 -20 97 77 49
51 57 104 -48 -11 39 -43 -112
5 24 -56 -8 69 17 -51 86
-81 -6 -47 24 38 21 -97 13
-67 41 98 15 -63 -25 47 -62
-57 -20 29 55 10 -37 85 46
38 58 -64 65 -53 29 49 -66
2 -17 20 23 -61 -37 -15 -14

std.constant6 i1 [32, 3, 3, 32]
00000000: 20af 3643 aa27 fd8c d0e2 d8cc 2db8 efa6
00000010: d0e9 ddad 112c efb7 9ae4 24f6 fbfa c1b9
00000020: f4db d1a2 12cc b449 5ce5 e829 3ac7 0efc
00000030: ada5 a9a2 afbd 0ea7 da4d e928 191b e290
00000040: 29d6 c809 e731 51e2 541c 4b6b b81e 36d2
00000050: dae4 972e d55d 0fe9 c493 42a6 fdaa 96a2
00000060: 4966 b122 98ff eb2b b502 e21c e6c0 f563
00000070: d6d4 f03f 3061 55e4 2dc5 e148 f93e 3619
00000080: 1f1d 0d10 fef8 d389 a8cc 2c3c 23ce df49
00000090: 27fe 0000 55ee 69a5 edbd 1654 da0c 58f0
000000a0: 3dca 4d5d 2f39 1cab b315 e9eb 02e2 412b
000000b0: 0a3c f6b5 5deb a7b9 ef22 44fb 81c4 f631
000000c0: 0835 2f31 e7d1 3fcf 3efe 2048 1a45 b3a0
000000d0: 3150 e2b1 363e bfe0 4c27 3c58 d7ff 6390
000000e0: 29b6 cf31 50b5 5122 e69c b0fb 0d9f eac6
000000f0: 9eda 46ce 7128 d09a 10cf 08d6 92fd 3bda
32 -81 54 67 -86 39 -3 -116
-48 -30 -40 -52 45 -72 -17 -90
-48 -23 -35 -83 17 44 -17 -73
-102 -28 36 -10 -5 -6 -63 -71
-12 -37 -47 -94 18 -52 -76 73
92 -27 -24 41 58 -57 14 -4
-83 -91 -87 -94 -81 -67 14 -89
-38 77 -23 40 25 27 -30 -112
41 -42 -56 9 -25 49 81 -30
84 28 75 107 -72 30 54 -46
-38 -28 -105 46 -43 93 15 -23
-60 -109 66 -90 -3 -86 -106 -94
73 102 -79 34 -104 -1 -21 43
-75 2 -30 28 -26 -64 -11 99
-42 -44 -16 63 48 97 85 -28
45 -59 -31 72 -7 62 54 25
31 29 13 16 -2 -8 -45 -119
-88 -52 44 60 35 -50 -33 73
39 -2 0 0 85 -18 105 -91
-19 -67 22 84 -38 12 88 -16
61 -54 77 93 47 57 28 -85
-77 21 -23 -21 2 -30 65 43
10 60 -10 -75 93 -21 -89 -71
-17 34 68 -5 -127 -60 -10 49
8 53 47 49 -25 -47 63 -49
62 -2 32 72 26 69 -77 -96
49 80 -30 -79 54 62 -65 -32
76 39 60 88 -41 -1 99 -112
41 -74 -49 49 80 -75 81 34
-26 -100 -80 -5 13 -97 -22 -58
-98 -38 70 -50 113 40 -48 -102
16 -49 8 -42 -110 -3 59 -38

std.constant7 i1 [32, 3, 3, 32]
00000000: f5af 56eb e768 43da ba4b dad8 ad00 d300
00000010: bcc5 5a05 15dc 4439 3797 d91d 311e 5331
00000020: 15f0 0739 2d63 8e32 4d48 58f5 1e0a a3f6
00000030: b664 c6d2 cafe dd2d b403 0701 c5c3 11c0
00000040: 6328 a8e0 6be2 2fbe 2f24 5b93 f25b 5192
00000050: aa07 ed50 dce0 eb98 5f08 b999 e3f5 6d9a
00000060: 4871 331d 1e01 4e0a de28 5519 acfe 1706
00000070: b113 cbbc c4fc e064 cc24 fa23 1ca7 3923
00000080: 2a06 fd6a 2b5e 094e 171e 5dcb db18 3dbc
00000090: 3219 ca07 d61f b1f0 9c2f 04f8 59d7 4eaa
000000a0: d723 d037 fa1c 47ea df0e f7a4 983e c303
000000b0: 62f0 9d50 4da3 28bb 501d 6220 4550 7c3e
000000c0: 1bf0 55bd 323d 46bb 0005 c869 dd2a ad3f
000000d0: 21a6 dcec eb1e 4404 35cd 012f 5fe3 d7e6
000000e0: fb0a 3a02 1d3b 30d9 28bb 7349 b133 2524
000000f0: 06c9 cebf 66aa f2a2 0605 1dee be7b 98b8
-11 -81 86 -21 -25 104 67 -38
-70 75 -38 -40 -83 0 -45 0
-68 -59 90 5 21 -36 68 57
55 -105 -39 29 49 30 83 49
21 -16 7 57 45 99 -114 50
77 72 88 -11 30 10 -93 -10
-74 100 -58 -46 -54 -2 -35 45
-76 3 7 1 -59 -61 17 -64
99 40 -88 -32 107 -30 47 -66
47 36 91 -109 -14 91 81 -110
-86 7 -19 80 -36 -32 -21 -104
95 8 -71 -103 -29 -11 109 -102
72 113 51 29 30 1 78 10
-34 40 85 25 -84 -2 23 6
-79 19 -53 -68 -60 -4 -32 100
-52 36 -6 35 28 -89 57 35
42 6 -3 106 43 94 9 78
23 30 93 -53 -37 24 61 -68
50 25 -54 7 -42 31 -79 -16
-100 47 4 -8 89 -41 78 -86
-41 35 -48 55 -6 28 71 -22
-33 14 -9 -92 -104 62 -61 3
98 -16 -99 80 77 -93 40 -69
80 29 98 32 69 80 124 62
27 -16 85 -67 50 61 70 -69
0 5 -56 105 -35 42 -83 63
33 -90 -36 -20 -21 30 68 4
53 -51 1 47 95 -29 -41 -26
-5 10 58 2 29 59 48 -39
40 -69 115 73 -79 51 37 36
6 -55 -50 -65 102 -86 -14 -94
6 5 29 -18 -66 123 -104 -72
