ml/model2.tflite (tflite, 46896 bytes, 13 tensors)

dense/bias f4 [128]
00000000: 62d7 10bb 8ab6 123d 6252 f53c 8341 143d
00000010: 5283 2b3d fedc 9dbc f6b1 e0bc 5062 13bd
00000020: dae1 083d ddc0 0a3d 043c 083c 4fd2 18bd
00000030: 8d3e 69bc 0977 853d 6f07 3f3d 0f7a 62bd
00000040: 9952 423d 4f07 99bc f0d9 02bd 1084 43bc
00000050: 3477 5b3d c466 0fbd 808b 98bb c512 33bc
00000060: b1dc c2bc 2f46 5c3d 18c7 2ebd 1585 0a3d
00000070: 8426 87bc 8f38 16bd d162 373d 7052 0fbd
00000080: 4228 063a 7e46 d5bb 4381 a63b 2b15 cb3b
00000090: 3822 89bb 3ac0 fd3c 6c93 103d 9f35 353d
000000a0: 3c2d 08bd 630c fcbb b623 9eb9 77ca 26bc
000000b0: 5d58 07bd 79ff dcbb 4942 2fbc 1efd 42bd
000000c0: 423f 68bc 981d feba fce6 b0ba dd70 8a3b
000000d0: 0f16 f13c e6c4 0f3d d256 02bd a7a6 603d
000000e0: 750d d6bc 580e 15bd dbaf 11bd 5fa9 143d
000000f0: 59b9 803c 15e1 a8bc 1cff a83c 70f5 f2bc
00000100: 2e17 9bbc 5eb5 0d3d cbb3 f1bc d9b0 f2bc
00000110: 8a20 6cbc 46d2 593d 0971 843b 53fb 733d
00000120: b9bb 693c a530 1e3b 4176 7f3c 053d 0cbd
00000130: 99c6 11bd 9a24 853d 336c 13bd 299a 0e3d
00000140: 7343 08bd 9d8c 81bb cc8e c53b b40f 113b
00000150: 09ee dcbc b1b7 b03c db48 9fbb 24c9 5cbc
00000160: e170 80bb 36ea 943c ff29 2e3d 2261 f0bc
00000170: 5d81 aabc 6ce3 ccbc 3e1e c33b d89f 503d
00000180: 47e5 543d f92b 7cbc 0000 0000 ab06 643d
00000190: 0603 123d 3477 233d d1fe c93c c04b c7bc
000001a0: 8b51 dbbc fbc1 bbbb f2a9 0fbd 86b8 0e3d
000001b0: 542b 8ebb afc1 67bc 58ed cb3a 92fb b7bb
000001c0: 2685 2e3d f96b 283d f921 113d d7be d13b
000001d0: 3e84 cb3a 7d71 123d 3c1c b7bc 4609 323d
000001e0: 3c7e df39 0673 23bd cfaf 4c3d 9049 f1bb
000001f0: eec9 103d b804 403d 20f7 b3bb 23ca 09bd
-0.0022101034 0.035818614 0.02994651 0.03619529 0.041873284 -0.019270416 -0.027428608 -0.03598243
0.033418514 0.033875335 0.00831509 -0.03730994 -0.014236105 0.06516845 0.04663795 -0.055292185
0.047442053 -0.018680243 -0.031946123 -0.011933342 0.053580478 -0.035010114 -0.0046553016 -0.010929768
-0.023786874 0.05377787 -0.04267034 0.033818323 -0.016497858 -0.036675032 0.044771973 -0.034990728
0.0005117693 -0.0065086475 0.005081327 0.006197592 -0.0041849874 0.03097545 0.035296842 0.04424059
-0.033246264 -0.0076919063 -0.00030162715 -0.010180107 -0.033043254 -0.006744322 -0.010696956 -0.047604673
-0.014175238 -0.0019387482 -0.0013496573 0.00422488 0.029429464 0.035099886 -0.03182108 0.054846432
-0.026129464 -0.036390632 -0.0355681 0.036294337 0.01571338 -0.02061514 0.020629458 -0.02965805
-0.018931951 0.034596793 -0.029504677 -0.029625343 -0.014412055 0.053179048 0.004041795 0.059565853
0.014265948 0.002413788 0.015592159 -0.03423788 -0.035589788 0.06501122 -0.03599186 0.034814987
-0.03326745 -0.00395353 0.0060289856 0.0022134604 -0.026968973 0.021571966 -0.00486098 -0.01347569
-0.003919706 0.018178087 0.04252052 -0.029343192 -0.020813638 -0.025010787 0.005954533 0.05093369
0.05197647 -0.015391343 0.0 0.05567042 0.035647415 0.039908603 0.024657639 -0.024328113
-0.026772281 -0.0057299114 -0.03507418 0.034843944 -0.004338661 -0.014145299 0.0015558405 -0.0056147063
0.04260745 0.041118596 0.03543279 0.0064009237 0.0015527082 0.035752762 -0.02235233 0.043465875
0.00042627926 -0.039904617 0.04997235 -0.0073635057 0.035348825 0.0468795 -0.005492106 -0.03364004

conv2d_4/bias f4 [32]
00000000: ec9d d93c 42b3 a8bc 8585 02bc 5fe6 c0bc
00000010: 7af4 80bc 4272 933a 8ca1 17bc 8f8d 6bbc
00000020: 4d99 033d 076f 1dbc 98bd 51bc 92e9 d93c
00000030: ac33 5abc 8a67 d43c 1074 2a3d a235 1dbc
00000040: f87c 76b8 ed09 d0bc ecdd e8b9 fff2 e6bb
00000050: 9b95 dabb d856 31bc 2c7b 45bc c82b 59bc
00000060: d271 c1bb 19ba a9bc 1b2a de3c 88ad 74bc
00000070: 8c3a 37bc 0842 bfbb d952 9ebc 9da1 7abc
0.02656456 -0.02059329 -0.007966404 -0.02354735 -0.015741576 0.0011249261 -0.009254824 -0.014377012
0.03212862 -0.0096089905 -0.01280155 0.026600633 -0.013317984 0.025928278 0.041614592 -0.009595307
-5.8767357e-05 -0.025395358 -0.00044415833 -0.0070480104 -0.0066706664 -0.010823928 -0.012053292 -0.013255067
-0.005903461 -0.020718621 0.027119687 -0.014933951 -0.011183392 -0.005836729 -0.019326614 -0.015297321

conv2d_3/bias f4 [32]
00000000: 6c23 febc 046d 613c 4941 303b b949 3ebc
00000010: 44d9 dd3c 9229 c1bc a172 873a 5173 a43c
00000020: 2ac8 41bc 85f9 26bc b577 303c 294a 80bb
00000030: 60e2 943b 6170 c9bc 3704 aa3b 4a4e 1bba
00000040: 4fff 4ebc 1ec3 b9bc ff67 f4bb 5b19 82bc
00000050: c8a5 b2bc a505 61bc 21b3 39bc 66e2 a7bc
00000060: 01ae 823c c238 e5bc ee37 8ebc 1b45 84bb
00000070: 5327 063d 4391 77bc 708a 11bb ee52 e1bb
-0.03102275 0.0137589015 0.0026894382 -0.011614257 0.02708114 -0.023579393 0.0010333845 0.020074518
-0.011827508 -0.010191326 0.010770728 -0.0039150906 0.0045435876 -0.02458972 0.0051884907 -0.0005924447
-0.0126341125 -0.022676047 -0.0074586864 -0.015881231 -0.021807566 -0.013734256 -0.011334212 -0.020493697
0.015952112 -0.027981166 -0.017360654 -0.0040365583 0.032752346 -0.015110317 -0.002220776 -0.006876341

conv2d_2/bias f4 [32]
00000000: 3e69 0fbb adbc efbc 128a 663c 9168 59bc
00000010: a1c1 bb3c 3a16 57bc ea42 a93c 309c 85bb
00000020: c65c 13bc 9dc0 963c 44c3 afbc f081 6bbc
00000030: 02ba 70bc 0c28 f939 7c6d 2bbc 3428 44ba
00000040: afaf c43c 5a7a 78bc 7407 ab3b 1206 8dbc
00000050: 862d 393b 7b0b 043c 5817 0cbd 19cd f5bb
00000060: 2635 92bc b548 9b3b bd00 d9ba 0fd3 2c3c
00000070: 4858 4f3a 33e4 9cbc 7236 8c3c ec05 63bb
-0.0021882798 -0.029264772 0.014071004 -0.0132695595 0.022919478 -0.013127858 0.02066179 -0.004077457
-0.008994287 0.018402392 -0.021455415 -0.014374241 -0.014692785 0.00047522818 -0.010463115 -0.00074827974
0.024009554 -0.01516589 0.0052193943 -0.017214809 0.0028255894 0.008059378 -0.03420195 -0.007501256
-0.017847609 0.004738892 -0.0016556006 0.010548367 0.0007909578 -0.019151783 0.017115805 -0.003464098

conv2d_1/bias f4 [32]
00000000: eeca 89bc c037 fb3a 03f6 7f3b d593 153b
00000010: f278 1b3b 2d59 7abc 8e85 8e3c 6825 883c
00000020: 30e4 8e3c 3ca8 ed3a 2420 86bb 0d68 c5bc
00000030: a0e3 85ba e23a 5cbc 772b 133c 4acf 02bd
00000040: 7226 bf3c ee9f c63c 532c f1bc cc5c d5bc
00000050: 42cb 793c 24b7 bbbc 6f22 a1bc 86c0 993c
00000060: 9352 063c 1c65 443b 14df d0bc 4445 0a3c
00000070: 31fe 723c b03e 913c a91f 9fbc cc39 053c
-0.016820397 0.0019166395 0.0039056547 0.002282371 0.0023723212 -0.01528005 0.017397668 0.0166194
0.017442793 0.0018131803 -0.004093187 -0.024097467 -0.0010214932 -0.013441773 0.008982531 -0.031935968
0.023333762 0.024246182 -0.02944008 -0.026045226 0.015246214 -0.022914477 -0.01966974 0.01876856
0.008198398 0.0029967492 -0.025496997 0.008439366 0.014831112 0.017730087 -0.019424276 0.008131456

conv2d/bias f4 [16]
00000000: 230f 8c3c 7a36 63ba c3c3 1fbc 391b 1b3c
00000010: 008b bfbc fdc8 b2ba fadc c8ba 202f 22bd
00000020: 2c44 483b 1622 eb3b 2d35 203c 48b4 a9bb
00000030: cd46 d03c 08ca ca3c f81b 013c 0afd c7ba
0.017097061 -0.00086674804 -0.009751263 0.00946694 -0.02338171 -0.0013640221 -0.0015324645 -0.039595723
0.0030558212 0.007175694 0.009778303 -0.005178962 0.025424385 0.02475454 0.007880203 -0.0015257907

std.constant1 i1 [128, 32] scale=0.0018284742 zero_point=0
00000000: 9d22 b338 0817 10cb 4d05 5925 b8fa 9be4
00000010: a2ab 2107 d6f5 3134 1c0b bedd d7ec e200
00000020: 52f5 edc5 49ce 31c7 48d8 306f 3adb f8f6
00000030: b1bc 502d 40c8 2ea4 fd0f 100c 1596 fa04
00000040: 65a1 40f3 f223 2ab5 2605 a5ff 4dfe 0fc1
00000050: 06c6 c9b6 2527 24ee 2755 3114 c961 db40
00000060: d6fd 44be eb5b 0021 2405 3e24 5bc4 382a
00000070: 06d2 3e59 6843 eeb8 ecb8 dd29 ac39 54be
00000080: 70a1 0cad f1ac 244a cfbb 2bd1 aad5 5fc4
00000090: dda4 4742 c4cf 4728 2aff fef3 a8b6 d451
000000a0: c41c b8b2 3a3f d2c3 a3e5 421b dceb 8bf6
000000b0: 5cc3 4cf5 d82f 4aea 0750 1c55 e5f8 f2cc
000000c0: cf5b aae9 969f cd19 a86a 4b00 28e3 39d4
000000d0: e1b1 c0ad 230e 1e4e 4be3 52cb b54c ae0a
000000e0: 3251 baf6 57dc 65c1 c827 51fd c39f 6013
000000f0: 4c1b ebe4 c164 b935 611a 8fe8 4a05 6a36
-0.18101895 0.062168125 -0.14079252 0.10239456 0.014627794 0.042054906 0.029255588 -0.096909136
0.14079252 0.009142371 0.16273421 0.067653544 -0.13165015 -0.010970846 -0.1846759 -0.05119728
-0.17187658 -0.1554203 0.06033965 0.01279932 -0.07679592 -0.020113217 0.089595236 0.09508066
0.05119728 0.020113217 -0.1206793 -0.0639966 -0.074967444 -0.036569484 -0.054854225 0.0
0.14993489 -0.020113217 -0.03474101 -0.10787998 0.13347861 -0.09142371 0.089595236 -0.10422303
0.13165015 -0.07313897 0.08776677 0.20296064 0.106051505 -0.067653544 -0.014627794 -0.018284742
-0.14444946 -0.12433625 0.14627793 0.08228134 0.11702235 -0.10239456 0.08410981 -0.16821963
-0.005485423 0.027427113 0.029255588 0.021941692 0.03839796 -0.19381827 -0.010970846 0.007313897
0.1846759 -0.17370506 0.11702235 -0.023770165 -0.02559864 0.0639966 0.07679592 -0.13713557
0.06948202 0.009142371 -0.16639115 -0.0018284742 0.14079252 -0.0036569485 0.027427113 -0.11519387
0.010970846 -0.106051505 -0.10056608 -0.13530709 0.067653544 0.0713105 0.065825075 -0.032912537
0.0713105 0.1554203 0.089595236 0.036569484 -0.10056608 0.177362 -0.067653544 0.11702235
-0.07679592 -0.005485423 0.12433625 -0.1206793 -0.03839796 0.16639115 0.0 0.06033965
0.065825075 0.009142371 0.113365404 0.065825075 0.16639115 -0.10970845 0.10239456 0.07679592
0.010970846 -0.08410981 0.113365404 0.16273421 0.19016132 0.12250777 -0.032912537 -0.13165015
-0.036569484 -0.13165015 -0.0639966 0.074967444 -0.15359184 0.10422303 0.15359184 -0.1206793
0.20478912 -0.17370506 0.021941692 -0.15176336 -0.027427113 -0.15359184 0.065825075 0.13530709
-0.089595236 -0.12616472 0.07862439 -0.08593829 -0.15724878 -0.07862439 0.17370506 -0.10970845
-0.0639966 -0.16821963 0.12982167 0.1206793 -0.10970845 -0.089595236 0.12982167 0.07313897
0.07679592 -0.0018284742 -0.0036569485 -0.023770165 -0.16090573 -0.13530709 -0.08045287 0.14810641
-0.10970845 0.05119728 -0.13165015 -0.142621 0.106051505 0.11519387 -0.08410981 -0.11153693
-0.1700481 -0.049368802 0.1206793 0.049368802 -0.065825075 -0.03839796 -0.21393149 -0.018284742
0.16821963 -0.11153693 0.13896404 -0.020113217 -0.07313897 0.08593829 0.13530709 -0.040226433
0.01279932 0.14627793 0.05119728 0.1554203 -0.049368802 -0.014627794 -0.02559864 -0.09508066
-0.089595236 0.16639115 -0.15724878 -0.042054906 -0.19381827 -0.177362 -0.09325218 0.045711856
-0.16090573 0.19381827 0.13713557 0.0 0.07313897 -0.053025752 0.10422303 -0.08045287
-0.056682702 -0.14444946 -0.11702235 -0.15176336 0.0639966 0.02559864 0.054854225 0.142621
0.13713557 -0.053025752 0.14993489 -0.096909136 -0.13713557 0.13896404 -0.14993489 0.018284742
0.09142371 0.14810641 -0.1279932 -0.018284742 0.15907726 -0.065825075 0.1846759 -0.11519387
-0.10239456 0.0713105 0.14810641 -0.005485423 -0.11153693 -0.177362 0.17553353 0.03474101
0.13896404 0.049368802 -0.03839796 -0.05119728 -0.11519387 0.18284743 -0.12982167 0.096909136
0.177362 0.04754033 -0.2066176 -0.043883383 0.13530709 0.009142371 0.19381827 0.098737605

std.constant2 f4 [1, 128]
00000000: d538 0dbe e23c cbbd d958 12be 7e2c 1dbe
00000010: 61d2 2abe b9eb b8b9 1466 aa3b a49a 373e
00000020: d840 34be 9887 3cbd 6000 183e 569c 983d
00000030: 1942 2b3e d065 efbd 521f 06be 18bc 813d
00000040: 5755 92bd 0e5f 17be b380 233e 3aa8 223e
00000050: aaf8 2bbe e8d6 3e3e 5628 c43c bf55 2a3e
00000060: 11e9 0c3e 8654 84be 48fb b83d 2889 86bc
00000070: f59e 413e eb80 c73d 5349 06be 334c 633d
00000080: 4177 53be 7d79 403e f1b2 25be c069 5d3c
00000090: 02ad 113e 9687 36be 2473 1dbe 019e b7bd
000000a0: 9224 473e 6cd9 3fbe f6ae fd3d 6e4a 523d
000000b0: 9bba 253e 594b 02be 31aa 143d 2499 fa3d
000000c0: ff8e bc3d 32a1 11bc 8736 54be 5e89 59bb
000000d0: ca15 e9bc 88bc dbbd 420a 3a3e 1f92 87bd
000000e0: 78f8 3e3e 1e3d 2d3e ee3d a03d b740 1cbe
000000f0: 0e31 4bbd bad8 ba3d 3868 2abe c456 163c
00000100: 6c96 223e 4ec3 4cbd 3765 223d 0229 e83d
00000110: 69f2 283e 3f76 48be 06cf b83d ec3f 34be
00000120: ffef 1c3e 7f21 1cbe 06e0 2e3c 39bf be3d
00000130: 476d 9f3d 1409 95bd 1687 013e 1a2d 3dbe
00000140: 417d c83d 3f81 313e 0c27 c8bd 2a24 ac3d
00000150: de4e b5bb dc5b 07bd 8973 433e 893a abbb
00000160: 6b8a a0bd ece4 a2bc df6f 25be 05a2 f73c
00000170: 13e2 163e 492f 1a3e 672d 7dbd f753 17be
00000180: a5c8 69be c08b 313e cac8 8cbd 9101 98bd
00000190: 8963 edbd 96b7 e4bd 9701 1b3e 3894 c73d
000001a0: 20c7 113e f4cf 413e 32c9 073e 478d 0cbe
000001b0: 1723 fabd 7b50 4b3e 42cd 243e 0d1a 1fbe
000001c0: 8dac 16be 3c3f abbc 88eb 5abe f27f c3bc
000001d0: 9e01 b53d c44f 2cbe fb97 1e3e 2800 71be
000001e0: c9ba 273e d866 1d3e b2b5 d8bd 3ee9 193e
000001f0: d4d4 85bd 9367 0fbe d373 343e 1c5d 893c
-0.13791211 -0.09923722 -0.14291705 -0.15349004 -0.16681816 -0.00035270842 0.005200157 0.17930084
-0.17602861 -0.04602775 0.14843893 0.07451694 0.16724433 -0.11689341 -0.13097885 0.06334704
-0.071451835 -0.14782354 0.15967064 0.15884486 -0.16794077 0.18636668 0.023945015 0.16634272
0.13760783 -0.25845736 0.09032303 -0.016422823 0.18908294 0.09741386 -0.13113908 0.05549259
-0.2065096 0.18796344 -0.16181542 0.013513982 0.14226153 -0.1782516 -0.15375954 -0.08965684
0.19447544 -0.18735284 0.12386887 0.051340513 0.16184466 -0.12724055 0.03629512 0.122362405
0.09206962 -0.00888853 -0.20723926 -0.003319345 -0.028452773 -0.10729319 0.18167976 -0.06619667
0.18649471 0.16917846 0.07824312 -0.15259062 -0.04960733 0.091233686 -0.16641319 0.00917596
0.15877694 -0.049990945 0.039647307 0.113359466 0.16498722 -0.19576357 0.090238616 -0.1760251
0.15325926 -0.15247153 0.010673529 0.093138166 0.07784515 -0.07277122 0.12649187 -0.18474236
0.09789515 0.1733446 -0.097730726 0.08405335 -0.0055330833 -0.03304659 0.19087042 -0.005225484
-0.07838901 -0.01988455 -0.16155957 0.030228624 0.14734678 0.150571 -0.061810877 -0.14778124
-0.22830446 0.17338467 -0.06874235 -0.07422174 -0.115912504 -0.11167829 0.15137325 0.09745067
0.14236116 0.18926984 0.13260344 -0.13725768 -0.12213724 0.1985492 0.16093925 -0.15537281
-0.1471426 -0.020904176 -0.2137891 -0.02386472 0.08838199 -0.16827303 0.15487663 -0.23535216
0.16379847 0.15371263 -0.10581531 0.15030381 -0.06534734 -0.14004354 0.17622308 0.01676803

std.constant3 f4 [16, 3, 3, 3]
00000000: cee9 623d 688e 29bd fe89 07be 3b9d b63c
00000010: e43c 523d 6e7e c9bc 94bf f0bd 7de2 babc
00000020: 94ec 2abe 5123 ec3d fe14 073d 707e 33be
00000030: a5cd 01be e911 c03c 7701 2a3d 9fe3 d9bd
00000040: 459a 7e3d 1641 37bd e2b4 d5bd ddc2 34bd
00000050: a28c 413e 63f6 87bc 94a1 dbbd 6ed7 c0bd
00000060: 2723 b53d 67ea d6bd 7220 d23c c1ad 113e
00000070: b830 703b 765b 0bbe def5 df3d 0831 2dbe
00000080: 71dc 64bc 3759 b03d e219 17be e541 6f3d
00000090: 8772 453e 9160 24bd 1495 19bb 9498 30bd
000000a0: 782a 06be 0748 11be eb70 c13c 1e8b 2ebe
000000b0: 362e e63b 73c2 3e3d 1710 25be b009 103d
000000c0: d704 06bc 0cc4 85bd 0fca 41bd 9762 943d
000000d0: 53a9 ca3d 67ed a03d 7a0c 7cbd 831c 1a3e
000000e0: f6cd e7bd ceea 9b39 71a2 b63d 047b 07be
000000f0: 7bf5 133e 0b93 34bb 272f 49be 3407 033e
00000100: 1f7a d5bc 2b09 2d3e f5a0 103e b7e8 b83c
00000110: bf2e 473d 3c34 ab3d 9f4e 3fbe af47 16be
00000120: 84b1 b13c 062c 9b3d 6b0d ebbd 9d5e ca3c
00000130: 2440 2a3d 768c 2a3d 848a 033e 5218 3d3e
00000140: 8ea9 e93d ac91 33be e330 febd fbbc fcbd
00000150: 0391 7c3d fc72 133b 4b3b 2a3e c30d f53c
00000160: 350a 103e c2bd a23d 7813 5d3d 89d8 123e
00000170: 8763 153e a6dc 9bbd 80df 2abe 5ad3 413e
00000180: ce66 16be bb94 fb3d 5357 98bd 99f4 813d
00000190: 595c 19be b049 313e 055a 52bd c391 afbc
000001a0: 70a8 2e3d b3e9 42be 6258 55bd 5db0 b43d
000001b0: 08f3 86bd 1e21 29be 4d02 5c3c de1a a7bd
000001c0: 6b4e 1dbd a850 60bd 0ffb 113e 20d1 0cbe
000001d0: 39fb 383d fea7 2b3e 4178 d53b 5386 fb3d
000001e0: 7b7a 333d 24c6 29be 07d4 173e 213a ed3d
000001f0: 4133 bbbd 5f0a 96bc 04fa 123e eeb7 79bd
00000200: b0c5 c1bd 9f2b 2e3e d2ae a9bd 0ca5 023e
00000210: 81a5 29be ad6e 2a3d abf5 303e ccd6 c33d
00000220: ca7e 843c ed16 78bc f605 9fbd 6b2c 263e
00000230: ec22 41be 132a d2bd 65ff d53d 9cb3 3abe
00000240: 751e 24be f43c 3ebe 644c ee3c 6447 233d
00000250: 28bb ad3d a7f2 073e 070a 353e cbab 573d
00000260: ad79 10be 17d0 883d 6c7a 173c f74a 83bd
00000270: 24b2 ff3d 921a ca3d b0ef 9a3d 262c 21bd
00000280: fef2 bebd d78f 883d 6e62 913d efef 15bd
00000290: 61d2 afbd 598c b8bd 9efe 113d a49b 443e
000002a0: 8542 1c3e f424 eb3d 0730 1a3e 67cd 3f3c
000002b0: 8858 cbbc 4e7f 453d d82e 06be c82c 15be
000002c0: 533d 32be 71a4 2fbb d9ee c9bd a5ad 26be
000002d0: 7633 b73d 0fa7 d83a c9f5 3b3e 13f5 243e
000002e0: d00c 5a3d 196e dbbd 6bd6 20be 2308 bcbd
000002f0: e6d4 933b 4d2f 81bb 5885 3b3d 5bf9 cabd
00000300: 660f 2f3e 8421 35be f7fb 0dbd a511 81bd
00000310: c7cb 893d 2df0 30be 2fec 023e 909b 993d
00000320: 9adf 2fbd b7e1 913d c6c4 64bd 9b56 22be
00000330: 44cd 07be 023b 1f3e 102e 943d 1aad 283e
00000340: bb18 01be e5f3 903d beea f43d e6e2 e63d
00000350: 19c1 d1bd a03b 383e f7ce bcbd 46b3 d23d
00000360: 1cde 2f3e 79f1 9f3c 115a 83bd 9df0 38be
00000370: c34d a23d 3b9c 84bd 9911 1e3c 666d 04be
00000380: 6125 2bbe eee8 3a3e de83 313e f590 03be
00000390: ca7d 0ebe 4981 2ebd 93ed 89bd c8d0 bc3d
000003a0: 959e 74bd fbfd c03d 178e 0ebe bcf9 1ebe
000003b0: 3928 b53d 038f 053e 65c9 663c e130 d5bd
000003c0: 273b 253e 0bcd d33c ca64 043e 0ab3 80bc
000003d0: b89d 1c3e 55b1 8f3c 6ff5 2fbe 4992 0b3e
000003e0: 379c 0cbc d1e8 fbbd af91 303e b4f4 2bbd
000003f0: 5c78 ac3d 5fdc b13d 24e8 97bd f30f 0d3d
0.055398755 -0.041395575 -0.13236234 0.02229177 0.0513276 -0.02459642 -0.11755291 -0.022813076
-0.1669181 0.115301736 0.032979004 -0.17528701 -0.12676103 0.02344604 0.041505303 -0.106391184
0.06215884 -0.044739805 -0.10434891 -0.04413115 0.18901303 -0.016596979 -0.10724178 -0.0941609
0.088445954 -0.104939274 0.025650237 0.14226438 0.0036650132 -0.13609108 0.10935567 -0.16913235
-0.013968573 0.086107664 -0.14755967 0.05841245 0.1928197 -0.040131155 -0.0023434805 -0.04311426
-0.13102138 -0.14187633 0.023613414 -0.17045256 0.0070245517 0.04657216 -0.16119419 0.03516549
-0.008179865 -0.065315336 -0.04731184 0.07245367 0.09895577 0.07857781 -0.061535336 0.15049939
-0.11318581 0.00029738847 0.08917702 -0.1323052 0.14449112 -0.0027553465 -0.19646893 0.12795717
-0.026059208 0.16898029 0.141239 0.022571905 0.048628565 0.08359572 -0.18682335 -0.14675783
0.021691091 0.07576756 -0.11477169 0.024703318 0.041565076 0.04163786 0.12845808 0.18466309
0.11409293 -0.17536038 -0.12411668 -0.12340733 0.06166173 0.0022498956 0.16624181 0.029913789
0.14066394 0.0794635 0.053973645 0.14340414 0.14588748 -0.07610445 -0.16686821 0.1892828
-0.14687654 0.122842275 -0.07438531 0.063454814 -0.14976634 0.17313266 -0.05135538 -0.02143181
0.042641103 -0.19034462 -0.05208624 0.08822701 -0.06589323 -0.1651654 0.013428283 -0.081594214
-0.038404863 -0.05476442 0.14255928 -0.1375165 0.04516146 0.16763303 0.0065145795 0.1228148
0.04381798 -0.16579491 0.14826976 0.11583353 -0.09140635 -0.018315492 0.14353186 -0.060966425
-0.09461534 0.17008828 -0.082852975 0.12758273 -0.16567041 0.041609455 0.17281215 0.09562454
0.016173739 -0.015142185 -0.07764809 0.16227882 -0.18860978 -0.10261931 0.10449103 -0.18232578
-0.16027243 -0.1857794 0.02908916 0.039863005 0.08482963 0.13276158 0.17679606 0.05265407
-0.14108916 0.06680315 0.009245496 -0.06410783 0.124851495 0.09868349 0.07565248 -0.039348744
-0.09323691 0.0666806 0.07098852 -0.03660577 -0.085850485 -0.09011144 0.035643212 0.19199997
0.1525975 0.114816576 0.15057383 0.011706687 -0.024822488 0.04821711 -0.13103807 -0.14567864
-0.17406206 -0.0026800896 -0.0986001 -0.16277178 0.08945362 0.001652928 0.18355478 0.16109113
0.053234875 -0.10714359 -0.15706794 -0.091812395 0.0045114635 -0.0039424063 0.045781463 -0.09910842
0.17095718 -0.17688566 -0.03466412 -0.063021936 0.067283206 -0.1727912 0.1278541 0.07500374
-0.042937852 0.0712313 -0.05585172 -0.1585335 -0.13261896 0.15549853 0.07235348 0.16472283
-0.1260709 0.07077769 0.11958836 0.11273746 -0.102419086 0.17991495 -0.09219163 0.102881
0.17174572 0.019524323 -0.06413663 -0.18060537 0.07924988 -0.06475111 0.00964775 -0.12932357
-0.16713478 0.18252918 0.1733546 -0.12848265 -0.13915172 -0.042603765 -0.06734767 0.09219509
-0.059721548 0.09423443 -0.1392139 -0.15524954 0.088455625 0.13042836 0.014086102 -0.104097135
0.16135846 0.025854608 0.12929073 -0.015710372 0.1529454 0.017540613 -0.17183469 0.13630022
-0.008582166 -0.123002656 0.17243074 -0.041981414 0.08421394 0.086846106 -0.07417324 0.03443904

std.constant4 i1 [32, 3, 3, 16]
00000000: 0261 cfd5 fa2f 430f 43c6 4148 ce37 09db
00000010: 2f0f cab6 6ce1 29e9 24dd 17e5 c4b8 d3f4
00000020: 4ff6 e344 3839 265c 18b6 5358 1414 c324
00000030: c540 0912 153c 3e13 da43 21db aa36 10c1
00000040: 04cb 08ee 64d8 c900 5421 ac09 adfa 23c6
00000050: 0d54 2c53 21b4 4401 07f3 ec3a fdc0 dee8
00000060: dbbe 0e2a cb9c 2d26 56a0 4249 0b48 181a
00000070: 1d5b 1d2e fc48 7f09 581f d136 05e3 b906
00000080: 15f1 04b7 33d9 04c1 fdb2 313e fc6d a4e9
00000090: d7aa 8660 ebbc a595 35b0 36b3 125c d621
000000a0: b65b 891d fadf a0ad 3b41 c8ba ebf1 a31e
000000b0: 5d14 f068 b340 d2d1 6810 1434 053e 28d4
000000c0: 9f5f 1fd0 d545 b611 c6ed 4ec5 c423 c70a
000000d0: a742 5499 d6f7 fe37 eed9 ba17 1c76 16c0
000000e0: ff3d 5264 1f35 3546 ed03 e141 ace6 b4fc
000000f0: 4a43 e01a c3dd 45db a2c8 001b 44ff 46f0
2 97 -49 -43 -6 47 67 15
67 -58 65 72 -50 55 9 -37
47 15 -54 -74 108 -31 41 -23
36 -35 23 -27 -60 -72 -45 -12
79 -10 -29 68 56 57 38 92
24 -74 83 88 20 20 -61 36
-59 64 9 18 21 60 62 19
-38 67 33 -37 -86 54 16 -63
4 -53 8 -18 100 -40 -55 0
84 33 -84 9 -83 -6 35 -58
13 84 44 83 33 -76 68 1
7 -13 -20 58 -3 -64 -34 -24
-37 -66 14 42 -53 -100 45 38
86 -96 66 73 11 72 24 26
29 91 29 46 -4 72 127 9
88 31 -47 54 5 -29 -71 6
21 -15 4 -73 51 -39 4 -63
-3 -78 49 62 -4 109 -92 -23
-41 -86 -122 96 -21 -68 -91 -107
53 -80 54 -77 18 92 -42 33
-74 91 -119 29 -6 -33 -96 -83
59 65 -56 -70 -21 -15 -93 30
93 20 -16 104 -77 64 -46 -47
104 16 20 52 5 62 40 -44
-97 95 31 -48 -43 69 -74 17
-58 -19 78 -59 -60 35 -57 10
-89 66 84 -103 -42 -9 -2 55
-18 -39 -70 23 28 118 22 -64
-1 61 82 100 31 53 53 70
-19 3 -31 65 -84 -26 -76 -4
74 67 -32 26 -61 -35 69 -37
-94 -56 0 27 68 -1 70 -16

std.constant5 i1 [32, 3, 3, 32]
00000000: 591e c500 b0d0 0bb1 da1c 0960 b100 42ac
00000010: 44ec 4f18 a835 a9c3 1752 cfa4 c8c4 f627
00000020: dfec 961a 2114 04df 222e adbf 15ca a796
00000030: 1f59 eeaf 21ac 560b 304a fd43 db37 ca50
00000040: 4b5f cebc f9ef 1e13 2dc1 e13c ec0c c60d
00000050: bbff e05a 5ec2 6d2e 131e c341 e7fc b566
00000060: 18ad 4d06 43ca 9e5e f060 f4ee 3439 df2e
00000070: f7f5 07b1 0a1a f89c 9bba abc1 2cc6 0735
00000080: ec4c edc7 e615 b873 aea3 3e97 2c26 d10c
00000090: 3b9d b714 eace 20f1 0e36 462b 46b6 9419
000000a0: 5471 bcab 4058 c659 614e e352 4acb 30c1
000000b0: f512 23c3 ca61 0903 38e5 b4f5 5555 3e35
000000c0: 46de d539 23a8 ca66 5eee 0ab0 e021 04ff
000000d0: 1917 ba12 a513 3ed1 99ea 39dc 69cf de22
000000e0: a4bb 3ad2 d0a8 4a7f cd5a 0618 afa3 44de
000000f0: fe18 9afe d8d3 3248 3f21 dde7 63e0 de15
89 30 -59 0 -80 -48 11 -79
-38 28 9 96 -79 0 66 -84
68 -20 79 24 -88 53 -87 -61
23 82 -49 -92 -56 -60 -10 39
-33 -20 -106 26 33 20 4 -33
34 46 -83 -65 21 -54 -89 -106
31 89 -18 -81 33 -84 86 11
48 74 -3 67 -37 55 -54 80
75 95 -50 -68 -7 -17 30 19
45 -63 -31 60 -20 12 -58 13
-69 -1 -32 90 94 -62 109 46
19 30 -61 65 -25 -4 -75 102
24 -83 77 6 67 -54 -98 94
-16 96 -12 -18 52 57 -33 46
-9 -11 7 -79 10 26 -8 -100
-101 -70 -85 -63 44 -58 7 53
-20 76 -19 -57 -26 21 -72 115
-82 -93 62 -105 44 38 -47 12
59 -99 -73 20 -22 -50 32 -15
14 54 70 43 70 -74 -108 25
84 113 -68 -85 64 88 -58 89
97 78 -29 82 74 -53 48 -63
-11 18 35 -61 -54 97 9 3
56 -27 -76 -11 85 85 62 53
70 -34 -43 57 35 -88 -54 102
94 -18 10 -80 -32 33 4 -1
25 23 -70 18 -91 19 62 -47
-103 -22 57 -36 105 -49 -34 34
-92 -69 58 -46 -48 -88 74 127
-51 90 6 24 -81 -93 68 -34
-2 24 -102 -2 -40 -45 50 72
63 33 -35 -25 99 -32 -34 21

std.constant6 i1 [32, 3, 3, 32]
00000000: 1b19 af2c cef2 cf3f a81b 1501 bc2d 2d28
00000010: c421 b821 e0a2 31f9 a8fc 2147 37d3 bd1d
00000020: a605 6734 fdd7 ccee 28ad 2310 0cdc 5117
00000030: 1bba e003 b6d6 f6f5 53b3 98aa 1cda 3a22
00000040: bd50 300b ad00 f2db f2bb 1f7f a9c0 d91f
00000050: ecb1 d0b8 21f4 dc4e 4013 5fbd 3754 3ec6
00000060: 611b f2ef f19e 4abf 6bf0 a4db bde3 11b7
00000070: f3cc 62d4 06c8 4dcd c0d5 ec4b 4621 abf7
00000080: 246c 0baa ca4f 130d 2fc8 bf9d fd2e 36ab
00000090: 4df9 f639 09bb 3caa 28e5 fe61 5ade fdb9
000000a0: 09ef e961 fb1a c348 54b4 527c aab2 31e2
000000b0: e60e cb22 24b9 acfc eff2 6bed 36e6 f714
000000c0: f9d0 f9cc cfde 913f c60f c3d1 2b4e 350f
000000d0: 715f d4f6 45a4 1f4c 014f e60b f023 0cde
000000e0: 394f 107a bdea aeb3 bfcd c4f5 4bc8 601e
000000f0: 39ab f2b4 47d0 075e f121 ccd4 18fc d4a4
27 25 -81 44 -50 -14 -49 63
-88 27 21 1 -68 45 45 40
-60 33 -72 33 -32 -94 49 -7
-88 -4 33 71 55 -45 -67 29
-90 5 103 52 -3 -41 -52 -18
40 -83 35 16 12 -36 81 23
27 -70 -32 3 -74 -42 -10 -11
83 -77 -104 -86 28 -38 58 34
-67 80 48 11 -83 0 -14 -37
-14 -69 31 127 -87 -64 -39 31
-20 -79 -48 -72 33 -12 -36 78
64 19 95 -67 55 84 62 -58
97 27 -14 -17 -15 -98 74 -65
107 -16 -92 -37 -67 -29 17 -73
-13 -52 98 -44 6 -56 77 -51
-64 -43 -20 75 70 33 -85 -9
36 108 11 -86 -54 79 19 13
47 -56 -65 -99 -3 46 54 -85
77 -7 -10 57 9 -69 60 -86
40 -27 -2 97 90 -34 -3 -71
9 -17 -23 97 -5 26 -61 72
84 -76 82 124 -86 -78 49 -30
-26 14 -53 34 36 -71 -84 -4
-17 -14 107 -19 54 -26 -9 20
-7 -48 -7 -52 -49 -34 -111 63
-58 15 -61 -47 43 78 53 15
113 95 -44 -10 69 -92 31 76
1 79 -26 11 -16 35 12 -34
57 79 16 122 -67 -22 -82 -77
-65 -51 -60 -11 75 -56 96 30
57 -85 -14 -76 71 -48 7 94
-15 33 -52 -44 24 -4 -44 -92

std.constant7 i1 [32, 3, 3, 32]
00000000: 465b f0ee 18dd 7f26 df1d 610b f22b 2b14
00000010: bd53 06da e0af 32b9 4b12 2011 bfcd 58dd
00000020: ca26 1ede 0fa9 3141 202c 3f10 c216 6a9e
00000030: 704e 6524 b120 ea3e dd3f 082e f15b f1ec
00000040: 2b4f bd17 d63b d90b c2be a3f7 1c16 5425
00000050: bbfa 38c1 d137 c313 2919 ef2b 1dd9 5165
00000060: 3202 4aba 61e9 b849 05e8 101c 3169 abbf
00000070: 5165 bfe0 e540 6dc0 52c2 5934 e0b7 c0f6
00000080: cd58 d933 13f5 4505 bb02 f409 b4f1 d0a7
00000090: f34a 49d7 b9ea 66cf 132e 59db 373f adb8
000000a0: 3fc7 4d3a 11af 3126 1949 d9d9 5625 61e0
000000b0: 41e8 f305 47d6 c4e2 d696 bee6 ee2b b1cc
000000c0: 9218 5438 129b 9c22 33f6 0a36 e420 5fda
000000d0: c627 ecf1 a82f 43b5 7b2b 3025 601d 9e1d
000000e0: d995 fc24 3838 91c2 1d29 1717 38a0 0fcb
000000f0: 6130 dff6 51a0 cf43 2abc be40 4eb0 d10f
70 91 -16 -18 24 -35 127 38
-33 29 97 11 -14 43 43 20
-67 83 6 -38 -32 -81 50 -71
75 18 32 17 -65 -51 88 -35
-54 38 30 -34 15 -87 49 65
32 44 63 16 -62 22 106 -98
112 78 101 36 -79 32 -22 62
-35 63 8 46 -15 91 -15 -20
43 79 -67 23 -42 59 -39 11
-62 -66 -93 -9 28 22 84 37
-69 -6 56 -63 -47 55 -61 19
41 25 -17 43 29 -39 81 101
50 2 74 -70 97 -23 -72 73
5 -24 16 28 49 105 -85 -65
81 101 -65 -32 -27 64 109 -64
82 -62 89 52 -32 -73 -64 -10
-51 88 -39 51 19 -11 69 5
-69 2 -12 9 -76 -15 -48 -89
-13 74 73 -41 -71 -22 102 -49
19 46 89 -37 55 63 -83 -72
63 -57 77 58 17 -81 49 38
25 73 -39 -39 86 37 97 -32
65 -24 -13 5 71 -42 -60 -30
-42 -106 -66 -26 -18 43 -79 -52
-110 24 84 56 18 -101 -100 34
51 -10 10 54 -28 32 95 -38
-58 39 -20 -15 -88 47 67 -75
123 43 48 37 96 29 -98 29
-39 -107 -4 36 56 56 -111 -62
29 41 23 23 56 -96 15 -53
97 48 -33 -10 81 -96 -49 67
42 -68 -66 64 78 -80 -47 15
